{"format": "graph-model", "generatedBy": "2.13.0", "convertedBy": "TensorFlow.js Converter v4.10.0", "signature": {"inputs": {"input_bytes": {"name": "input_bytes:0", "dtype": "DT_UINT8", "tensorShape": {"dim": [{"size": "-1"}, {"size": "-1"}, {"size": "-1"}, {"size": "3"}]}}}, "outputs": {"output_0": {"name": "Identity:0", "dtype": "DT_UINT8", "tensorShape": {"unknownRank": true}}}}, "modelTopology": {"node": [{"name": "StatefulPartitionedCall/model/UpCunet2x/TensorArrayV2Stack/TensorListStack/element_shape", "op": "Const", "device": "/device:CPU:0", "attr": {"value": {"tensor": {"dtype": "DT_INT32", "tensorShape": {}}}, "dtype": {"type": "DT_INT32"}}}, {"name": "StatefulPartitionedCall/model/UpCunet2x/range_4/delta", "op": "Const", "device": "/device:CPU:0", "attr": {"value": {"tensor": {"dtype": "DT_INT32", "tensorShape": {}}}, "_has_manual_control_dependencies": {"b": true}, "dtype": {"type": "DT_INT32"}}}, {"name": "StatefulPartitionedCall/model/UpCunet2x/while_4/loop_counter", "op": "Const", "device": "/device:CPU:0", "attr": {"value": {"tensor": {"dtype": "DT_INT32", "tensorShape": {}}}, "_has_manual_control_dependencies": {"b": true}, "dtype": {"type": "DT_INT32"}}}, {"name": "StatefulPartitionedCall/model/UpCunet2x/while_4/maximum_iterations", "op": "Const", "device": "/device:CPU:0", "attr": {"value": {"tensor": {"dtype": "DT_INT32", "tensorShape": {}}}, "_has_manual_control_dependencies": {"b": true}, "dtype": {"type": "DT_INT32"}}}, {"name": "StatefulPartitionedCall/model/UpCunet2x/range_4/start", "op": "Const", "device": "/device:CPU:0", "attr": {"value": {"tensor": {"dtype": "DT_INT32", "tensorShape": {}}}, "_has_manual_control_dependencies": {"b": true}, "dtype": {"type": "DT_INT32"}}}, {"name": "Func/StatefulPartitionedCall/input/_51", "op": "Const", "attr": {"value": {"tensor": {"dtype": "DT_FLOAT", "tensorShape": {"dim": [{"size": "1"}, {"size": "1"}, {"size": "64"}, {"size": "8"}]}}}, "dtype": {"type": "DT_FLOAT"}}}, {"name": "Func/StatefulPartitionedCall/input/_52", "op": "Const", "attr": {"value": {"tensor": {"dtype": "DT_FLOAT", "tensorShape": {"dim": [{"size": "8"}]}}}, "dtype": {"type": "DT_FLOAT"}}}, {"name": "Func/StatefulPartitionedCall/input/_53", "op": "Const", "attr": {"value": {"tensor": {"dtype": "DT_FLOAT", "tensorShape": {"dim": [{"size": "1"}, {"size": "1"}, {"size": "8"}, {"size": "64"}]}}}, "dtype": {"type": "DT_FLOAT"}}}, {"name": "Func/StatefulPartitionedCall/input/_54", "op": "Const", "attr": {"value": {"tensor": {"dtype": "DT_FLOAT", "tensorShape": {"dim": [{"size": "64"}]}}}, "dtype": {"type": "DT_FLOAT"}}}, {"name": "Func/StatefulPartitionedCall/input/_55", "op": "Const", "attr": {"value": {"tensor": {"dtype": "DT_FLOAT", "tensorShape": {"dim": [{"size": "2"}, {"size": "2"}, {"size": "64"}, {"size": "64"}]}}}, "dtype": {"type": "DT_FLOAT"}}}, {"name": "Func/StatefulPartitionedCall/input/_56", "op": "Const", "attr": {"value": {"tensor": {"dtype": "DT_FLOAT", "tensorShape": {"dim": [{"size": "64"}]}}}, "dtype": {"type": "DT_FLOAT"}}}, {"name": "Func/StatefulPartitionedCall/input/_57", "op": "Const", "attr": {"value": {"tensor": {"dtype": "DT_FLOAT", "tensorShape": {"dim": [{"size": "3"}, {"size": "3"}, {"size": "64"}, {"size": "64"}]}}}, "dtype": {"type": "DT_FLOAT"}}}, {"name": "Func/StatefulPartitionedCall/input/_58", "op": "Const", "attr": {"value": {"tensor": {"dtype": "DT_FLOAT", "tensorShape": {"dim": [{"size": "64"}]}}}, "dtype": {"type": "DT_FLOAT"}}}, {"name": "Func/StatefulPartitionedCall/input/_59", "op": "Const", "attr": {"value": {"tensor": {"dtype": "DT_FLOAT", "tensorShape": {"dim": [{"size": "3"}, {"size": "3"}, {"size": "64"}, {"size": "3"}]}}}, "dtype": {"type": "DT_FLOAT"}}}, {"name": "Func/StatefulPartitionedCall/input/_60", "op": "Const", "attr": {"value": {"tensor": {"dtype": "DT_FLOAT", "tensorShape": {"dim": [{"size": "3"}]}}}, "dtype": {"type": "DT_FLOAT"}}}, {"name": "StatefulPartitionedCall/model/UpCunet2x/TensorArrayV2_16/element_shape", "op": "Const", "device": "/device:CPU:0", "attr": {"value": {"tensor": {"dtype": "DT_INT32", "tensorShape": {}}}, "dtype": {"type": "DT_INT32"}}}, {"name": "StatefulPartitionedCall/model/UpCunet2x/while_3/loop_counter", "op": "Const", "attr": {"value": {"tensor": {"dtype": "DT_INT32", "tensorShape": {}}}, "_has_manual_control_dependencies": {"b": true}, "dtype": {"type": "DT_INT32"}}}, {"name": "StatefulPartitionedCall/model/UpCunet2x/while_3/maximum_iterations", "op": "Const", "attr": {"value": {"tensor": {"dtype": "DT_INT32", "tensorShape": {}}}, "_has_manual_control_dependencies": {"b": true}, "dtype": {"type": "DT_INT32"}}}, {"name": "StatefulPartitionedCall/model/UpCunet2x/range_3/start", "op": "Const", "attr": {"value": {"tensor": {"dtype": "DT_INT32", "tensorShape": {}}}, "_has_manual_control_dependencies": {"b": true}, "dtype": {"type": "DT_INT32"}}}, {"name": "StatefulPartitionedCall/model/UpCunet2x/range_3/delta", "op": "Const", "attr": {"value": {"tensor": {"dtype": "DT_INT32", "tensorShape": {}}}, "_has_manual_control_dependencies": {"b": true}, "dtype": {"type": "DT_INT32"}}}, {"name": "Func/StatefulPartitionedCall/input/_41", "op": "Const", "attr": {"value": {"tensor": {"dtype": "DT_FLOAT", "tensorShape": {"dim": [{"size": "1"}, {"size": "1"}, {"size": "128"}, {"size": "16"}]}}}, "dtype": {"type": "DT_FLOAT"}}}, {"name": "Func/StatefulPartitionedCall/input/_42", "op": "Const", "attr": {"value": {"tensor": {"dtype": "DT_FLOAT", "tensorShape": {"dim": [{"size": "16"}]}}}, "dtype": {"type": "DT_FLOAT"}}}, {"name": "Func/StatefulPartitionedCall/input/_43", "op": "Const", "attr": {"value": {"tensor": {"dtype": "DT_FLOAT", "tensorShape": {"dim": [{"size": "1"}, {"size": "1"}, {"size": "16"}, {"size": "128"}]}}}, "dtype": {"type": "DT_FLOAT"}}}, {"name": "Func/StatefulPartitionedCall/input/_44", "op": "Const", "attr": {"value": {"tensor": {"dtype": "DT_FLOAT", "tensorShape": {"dim": [{"size": "128"}]}}}, "dtype": {"type": "DT_FLOAT"}}}, {"name": "Func/StatefulPartitionedCall/input/_45", "op": "Const", "attr": {"value": {"tensor": {"dtype": "DT_FLOAT", "tensorShape": {"dim": [{"size": "2"}, {"size": "2"}, {"size": "128"}, {"size": "128"}]}}}, "dtype": {"type": "DT_FLOAT"}}}, {"name": "Func/StatefulPartitionedCall/input/_46", "op": "Const", "attr": {"value": {"tensor": {"dtype": "DT_FLOAT", "tensorShape": {"dim": [{"size": "128"}]}}}, "dtype": {"type": "DT_FLOAT"}}}, {"name": "Func/StatefulPartitionedCall/input/_47", "op": "Const", "attr": {"value": {"tensor": {"dtype": "DT_FLOAT", "tensorShape": {"dim": [{"size": "3"}, {"size": "3"}, {"size": "128"}, {"size": "64"}]}}}, "dtype": {"type": "DT_FLOAT"}}}, {"name": "Func/StatefulPartitionedCall/input/_48", "op": "Const", "attr": {"value": {"tensor": {"dtype": "DT_FLOAT", "tensorShape": {"dim": [{"size": "64"}]}}}, "dtype": {"type": "DT_FLOAT"}}}, {"name": "Func/StatefulPartitionedCall/input/_49", "op": "Const", "attr": {"value": {"tensor": {"dtype": "DT_FLOAT", "tensorShape": {"dim": [{"size": "3"}, {"size": "3"}, {"size": "64"}, {"size": "64"}]}}}, "dtype": {"type": "DT_FLOAT"}}}, {"name": "Func/StatefulPartitionedCall/input/_50", "op": "Const", "attr": {"value": {"tensor": {"dtype": "DT_FLOAT", "tensorShape": {"dim": [{"size": "64"}]}}}, "dtype": {"type": "DT_FLOAT"}}}, {"name": "StatefulPartitionedCall/model/UpCunet2x/zeros_3/packed/1", "op": "Const", "attr": {"value": {"tensor": {"dtype": "DT_INT32", "tensorShape": {}}}, "dtype": {"type": "DT_INT32"}}}, {"name": "StatefulPartitionedCall/model/UpCunet2x/zeros_3/packed/2", "op": "Const", "attr": {"value": {"tensor": {"dtype": "DT_INT32", "tensorShape": {}}}, "dtype": {"type": "DT_INT32"}}}, {"name": "StatefulPartitionedCall/model/UpCunet2x/zeros_3/packed/3", "op": "Const", "attr": {"value": {"tensor": {"dtype": "DT_INT32", "tensorShape": {}}}, "dtype": {"type": "DT_INT32"}}}, {"name": "StatefulPartitionedCall/model/UpCunet2x/zeros_3/Const", "op": "Const", "attr": {"value": {"tensor": {"dtype": "DT_FLOAT", "tensorShape": {}}}, "dtype": {"type": "DT_FLOAT"}}}, {"name": "StatefulPartitionedCall/model/UpCunet2x/while_2/loop_counter", "op": "Const", "attr": {"value": {"tensor": {"dtype": "DT_INT32", "tensorShape": {}}}, "_has_manual_control_dependencies": {"b": true}, "dtype": {"type": "DT_INT32"}}}, {"name": "StatefulPartitionedCall/model/UpCunet2x/while_2/maximum_iterations", "op": "Const", "attr": {"value": {"tensor": {"dtype": "DT_INT32", "tensorShape": {}}}, "_has_manual_control_dependencies": {"b": true}, "dtype": {"type": "DT_INT32"}}}, {"name": "StatefulPartitionedCall/model/UpCunet2x/range_2/start", "op": "Const", "attr": {"value": {"tensor": {"dtype": "DT_INT32", "tensorShape": {}}}, "_has_manual_control_dependencies": {"b": true}, "dtype": {"type": "DT_INT32"}}}, {"name": "StatefulPartitionedCall/model/UpCunet2x/range_2/delta", "op": "Const", "attr": {"value": {"tensor": {"dtype": "DT_INT32", "tensorShape": {}}}, "_has_manual_control_dependencies": {"b": true}, "dtype": {"type": "DT_INT32"}}}, {"name": "Func/StatefulPartitionedCall/input/_31", "op": "Const", "attr": {"value": {"tensor": {"dtype": "DT_FLOAT", "tensorShape": {"dim": [{"size": "1"}, {"size": "1"}, {"size": "128"}, {"size": "16"}]}}}, "dtype": {"type": "DT_FLOAT"}}}, {"name": "Func/StatefulPartitionedCall/input/_32", "op": "Const", "attr": {"value": {"tensor": {"dtype": "DT_FLOAT", "tensorShape": {"dim": [{"size": "16"}]}}}, "dtype": {"type": "DT_FLOAT"}}}, {"name": "Func/StatefulPartitionedCall/input/_33", "op": "Const", "attr": {"value": {"tensor": {"dtype": "DT_FLOAT", "tensorShape": {"dim": [{"size": "1"}, {"size": "1"}, {"size": "16"}, {"size": "128"}]}}}, "dtype": {"type": "DT_FLOAT"}}}, {"name": "Func/StatefulPartitionedCall/input/_34", "op": "Const", "attr": {"value": {"tensor": {"dtype": "DT_FLOAT", "tensorShape": {"dim": [{"size": "128"}]}}}, "dtype": {"type": "DT_FLOAT"}}}, {"name": "Func/StatefulPartitionedCall/input/_35", "op": "Const", "attr": {"value": {"tensor": {"dtype": "DT_FLOAT", "tensorShape": {"dim": [{"size": "2"}, {"size": "2"}, {"size": "128"}, {"size": "128"}]}}}, "dtype": {"type": "DT_FLOAT"}}}, {"name": "Func/StatefulPartitionedCall/input/_36", "op": "Const", "attr": {"value": {"tensor": {"dtype": "DT_FLOAT", "tensorShape": {"dim": [{"size": "128"}]}}}, "dtype": {"type": "DT_FLOAT"}}}, {"name": "Func/StatefulPartitionedCall/input/_37", "op": "Const", "attr": {"value": {"tensor": {"dtype": "DT_FLOAT", "tensorShape": {"dim": [{"size": "3"}, {"size": "3"}, {"size": "128"}, {"size": "256"}]}}}, "dtype": {"type": "DT_FLOAT"}}}, {"name": "Func/StatefulPartitionedCall/input/_38", "op": "Const", "attr": {"value": {"tensor": {"dtype": "DT_FLOAT", "tensorShape": {"dim": [{"size": "256"}]}}}, "dtype": {"type": "DT_FLOAT"}}}, {"name": "Func/StatefulPartitionedCall/input/_39", "op": "Const", "attr": {"value": {"tensor": {"dtype": "DT_FLOAT", "tensorShape": {"dim": [{"size": "3"}, {"size": "3"}, {"size": "256"}, {"size": "128"}]}}}, "dtype": {"type": "DT_FLOAT"}}}, {"name": "Func/StatefulPartitionedCall/input/_40", "op": "Const", "attr": {"value": {"tensor": {"dtype": "DT_FLOAT", "tensorShape": {"dim": [{"size": "128"}]}}}, "dtype": {"type": "DT_FLOAT"}}}, {"name": "StatefulPartitionedCall/model/UpCunet2x/TensorArrayV2_8/element_shape", "op": "Const", "attr": {"value": {"tensor": {"dtype": "DT_INT32", "tensorShape": {}}}, "dtype": {"type": "DT_INT32"}}}, {"name": "StatefulPartitionedCall/model/UpCunet2x/TensorArrayV2_8/num_elements", "op": "Const", "attr": {"value": {"tensor": {"dtype": "DT_INT32", "tensorShape": {}}}, "dtype": {"type": "DT_INT32"}}}, {"name": "StatefulPartitionedCall/model/UpCunet2x/zeros_2/packed/1", "op": "Const", "attr": {"value": {"tensor": {"dtype": "DT_INT32", "tensorShape": {}}}, "dtype": {"type": "DT_INT32"}}}, {"name": "StatefulPartitionedCall/model/UpCunet2x/zeros_2/packed/2", "op": "Const", "attr": {"value": {"tensor": {"dtype": "DT_INT32", "tensorShape": {}}}, "dtype": {"type": "DT_INT32"}}}, {"name": "StatefulPartitionedCall/model/UpCunet2x/zeros_2/packed/3", "op": "Const", "attr": {"value": {"tensor": {"dtype": "DT_INT32", "tensorShape": {}}}, "dtype": {"type": "DT_INT32"}}}, {"name": "StatefulPartitionedCall/model/UpCunet2x/zeros_2/Const", "op": "Const", "attr": {"value": {"tensor": {"dtype": "DT_FLOAT", "tensorShape": {}}}, "dtype": {"type": "DT_FLOAT"}}}, {"name": "StatefulPartitionedCall/model/UpCunet2x/while_1/loop_counter", "op": "Const", "attr": {"value": {"tensor": {"dtype": "DT_INT32", "tensorShape": {}}}, "_has_manual_control_dependencies": {"b": true}, "dtype": {"type": "DT_INT32"}}}, {"name": "StatefulPartitionedCall/model/UpCunet2x/while_1/maximum_iterations", "op": "Const", "attr": {"value": {"tensor": {"dtype": "DT_INT32", "tensorShape": {}}}, "_has_manual_control_dependencies": {"b": true}, "dtype": {"type": "DT_INT32"}}}, {"name": "StatefulPartitionedCall/model/UpCunet2x/range_1/start", "op": "Const", "attr": {"value": {"tensor": {"dtype": "DT_INT32", "tensorShape": {}}}, "_has_manual_control_dependencies": {"b": true}, "dtype": {"type": "DT_INT32"}}}, {"name": "StatefulPartitionedCall/model/UpCunet2x/range_1/delta", "op": "Const", "attr": {"value": {"tensor": {"dtype": "DT_INT32", "tensorShape": {}}}, "_has_manual_control_dependencies": {"b": true}, "dtype": {"type": "DT_INT32"}}}, {"name": "Func/StatefulPartitionedCall/input/_11", "op": "Const", "attr": {"value": {"tensor": {"dtype": "DT_FLOAT", "tensorShape": {"dim": [{"size": "1"}, {"size": "1"}, {"size": "64"}, {"size": "8"}]}}}, "dtype": {"type": "DT_FLOAT"}}}, {"name": "Func/StatefulPartitionedCall/input/_12", "op": "Const", "attr": {"value": {"tensor": {"dtype": "DT_FLOAT", "tensorShape": {"dim": [{"size": "8"}]}}}, "dtype": {"type": "DT_FLOAT"}}}, {"name": "Func/StatefulPartitionedCall/input/_13", "op": "Const", "attr": {"value": {"tensor": {"dtype": "DT_FLOAT", "tensorShape": {"dim": [{"size": "1"}, {"size": "1"}, {"size": "8"}, {"size": "64"}]}}}, "dtype": {"type": "DT_FLOAT"}}}, {"name": "Func/StatefulPartitionedCall/input/_14", "op": "Const", "attr": {"value": {"tensor": {"dtype": "DT_FLOAT", "tensorShape": {"dim": [{"size": "64"}]}}}, "dtype": {"type": "DT_FLOAT"}}}, {"name": "Func/StatefulPartitionedCall/input/_15", "op": "Const", "attr": {"value": {"tensor": {"dtype": "DT_FLOAT", "tensorShape": {"dim": [{"size": "2"}, {"size": "2"}, {"size": "64"}, {"size": "64"}]}}}, "dtype": {"type": "DT_FLOAT"}}}, {"name": "Func/StatefulPartitionedCall/input/_16", "op": "Const", "attr": {"value": {"tensor": {"dtype": "DT_FLOAT", "tensorShape": {"dim": [{"size": "64"}]}}}, "dtype": {"type": "DT_FLOAT"}}}, {"name": "Func/StatefulPartitionedCall/input/_17", "op": "Const", "attr": {"value": {"tensor": {"dtype": "DT_FLOAT", "tensorShape": {"dim": [{"size": "3"}, {"size": "3"}, {"size": "64"}, {"size": "64"}]}}}, "dtype": {"type": "DT_FLOAT"}}}, {"name": "Func/StatefulPartitionedCall/input/_18", "op": "Const", "attr": {"value": {"tensor": {"dtype": "DT_FLOAT", "tensorShape": {"dim": [{"size": "64"}]}}}, "dtype": {"type": "DT_FLOAT"}}}, {"name": "Func/StatefulPartitionedCall/input/_19", "op": "Const", "attr": {"value": {"tensor": {"dtype": "DT_FLOAT", "tensorShape": {"dim": [{"size": "4"}, {"size": "4"}, {"size": "3"}, {"size": "64"}]}}}, "dtype": {"type": "DT_FLOAT"}}}, {"name": "Func/StatefulPartitionedCall/input/_20", "op": "Const", "attr": {"value": {"tensor": {"dtype": "DT_FLOAT", "tensorShape": {"dim": [{"size": "3"}]}}}, "dtype": {"type": "DT_FLOAT"}}}, {"name": "Func/StatefulPartitionedCall/input/_21", "op": "Const", "attr": {"value": {"tensor": {"dtype": "DT_FLOAT", "tensorShape": {"dim": [{"size": "3"}, {"size": "3"}, {"size": "3"}, {"size": "32"}]}}}, "dtype": {"type": "DT_FLOAT"}}}, {"name": "Func/StatefulPartitionedCall/input/_22", "op": "Const", "attr": {"value": {"tensor": {"dtype": "DT_FLOAT", "tensorShape": {"dim": [{"size": "32"}]}}}, "dtype": {"type": "DT_FLOAT"}}}, {"name": "Func/StatefulPartitionedCall/input/_23", "op": "Const", "attr": {"value": {"tensor": {"dtype": "DT_FLOAT", "tensorShape": {"dim": [{"size": "3"}, {"size": "3"}, {"size": "32"}, {"size": "64"}]}}}, "dtype": {"type": "DT_FLOAT"}}}, {"name": "Func/StatefulPartitionedCall/input/_24", "op": "Const", "attr": {"value": {"tensor": {"dtype": "DT_FLOAT", "tensorShape": {"dim": [{"size": "64"}]}}}, "dtype": {"type": "DT_FLOAT"}}}, {"name": "Func/StatefulPartitionedCall/input/_25", "op": "Const", "attr": {"value": {"tensor": {"dtype": "DT_FLOAT", "tensorShape": {"dim": [{"size": "2"}, {"size": "2"}, {"size": "64"}, {"size": "64"}]}}}, "dtype": {"type": "DT_FLOAT"}}}, {"name": "Func/StatefulPartitionedCall/input/_26", "op": "Const", "attr": {"value": {"tensor": {"dtype": "DT_FLOAT", "tensorShape": {"dim": [{"size": "64"}]}}}, "dtype": {"type": "DT_FLOAT"}}}, {"name": "Func/StatefulPartitionedCall/input/_27", "op": "Const", "attr": {"value": {"tensor": {"dtype": "DT_FLOAT", "tensorShape": {"dim": [{"size": "3"}, {"size": "3"}, {"size": "64"}, {"size": "64"}]}}}, "dtype": {"type": "DT_FLOAT"}}}, {"name": "Func/StatefulPartitionedCall/input/_28", "op": "Const", "attr": {"value": {"tensor": {"dtype": "DT_FLOAT", "tensorShape": {"dim": [{"size": "64"}]}}}, "dtype": {"type": "DT_FLOAT"}}}, {"name": "Func/StatefulPartitionedCall/input/_29", "op": "Const", "attr": {"value": {"tensor": {"dtype": "DT_FLOAT", "tensorShape": {"dim": [{"size": "3"}, {"size": "3"}, {"size": "64"}, {"size": "128"}]}}}, "dtype": {"type": "DT_FLOAT"}}}, {"name": "Func/StatefulPartitionedCall/input/_30", "op": "Const", "attr": {"value": {"tensor": {"dtype": "DT_FLOAT", "tensorShape": {"dim": [{"size": "128"}]}}}, "dtype": {"type": "DT_FLOAT"}}}, {"name": "StatefulPartitionedCall/model/UpCunet2x/TensorArrayV2_2/element_shape", "op": "Const", "attr": {"value": {"tensor": {"dtype": "DT_INT32", "tensorShape": {}}}, "dtype": {"type": "DT_INT32"}}}, {"name": "StatefulPartitionedCall/model/UpCunet2x/TensorArrayV2_2/num_elements", "op": "Const", "attr": {"value": {"tensor": {"dtype": "DT_INT32", "tensorShape": {}}}, "dtype": {"type": "DT_INT32"}}}, {"name": "StatefulPartitionedCall/model/UpCunet2x/zeros_1/packed/1", "op": "Const", "attr": {"value": {"tensor": {"dtype": "DT_INT32", "tensorShape": {}}}, "dtype": {"type": "DT_INT32"}}}, {"name": "StatefulPartitionedCall/model/UpCunet2x/zeros_1/packed/2", "op": "Const", "attr": {"value": {"tensor": {"dtype": "DT_INT32", "tensorShape": {}}}, "dtype": {"type": "DT_INT32"}}}, {"name": "StatefulPartitionedCall/model/UpCunet2x/zeros_1/packed/3", "op": "Const", "attr": {"value": {"tensor": {"dtype": "DT_INT32", "tensorShape": {}}}, "dtype": {"type": "DT_INT32"}}}, {"name": "StatefulPartitionedCall/model/UpCunet2x/zeros_1/Const", "op": "Const", "attr": {"value": {"tensor": {"dtype": "DT_FLOAT", "tensorShape": {}}}, "dtype": {"type": "DT_FLOAT"}}}, {"name": "StatefulPartitionedCall/model/UpCunet2x/Const", "op": "Const", "attr": {"value": {"tensor": {"dtype": "DT_INT32", "tensorShape": {}}}, "_has_manual_control_dependencies": {"b": true}, "dtype": {"type": "DT_INT32"}}}, {"name": "StatefulPartitionedCall/model/UpCunet2x/while/loop_counter", "op": "Const", "attr": {"value": {"tensor": {"dtype": "DT_INT32", "tensorShape": {}}}, "_has_manual_control_dependencies": {"b": true}, "dtype": {"type": "DT_INT32"}}}, {"name": "StatefulPartitionedCall/model/UpCunet2x/while/maximum_iterations", "op": "Const", "attr": {"value": {"tensor": {"dtype": "DT_INT32", "tensorShape": {}}}, "_has_manual_control_dependencies": {"b": true}, "dtype": {"type": "DT_INT32"}}}, {"name": "StatefulPartitionedCall/model/UpCunet2x/range/start", "op": "Const", "attr": {"value": {"tensor": {"dtype": "DT_INT32", "tensorShape": {}}}, "_has_manual_control_dependencies": {"b": true}, "dtype": {"type": "DT_INT32"}}}, {"name": "StatefulPartitionedCall/model/UpCunet2x/range/delta", "op": "Const", "attr": {"value": {"tensor": {"dtype": "DT_INT32", "tensorShape": {}}}, "_has_manual_control_dependencies": {"b": true}, "dtype": {"type": "DT_INT32"}}}, {"name": "Func/StatefulPartitionedCall/input/_1", "op": "Const", "attr": {"value": {"tensor": {"dtype": "DT_FLOAT", "tensorShape": {"dim": [{"size": "3"}, {"size": "3"}, {"size": "3"}, {"size": "32"}]}}}, "dtype": {"type": "DT_FLOAT"}}}, {"name": "Func/StatefulPartitionedCall/input/_2", "op": "Const", "attr": {"value": {"tensor": {"dtype": "DT_FLOAT", "tensorShape": {"dim": [{"size": "32"}]}}}, "dtype": {"type": "DT_FLOAT"}}}, {"name": "Func/StatefulPartitionedCall/input/_3", "op": "Const", "attr": {"value": {"tensor": {"dtype": "DT_FLOAT", "tensorShape": {"dim": [{"size": "3"}, {"size": "3"}, {"size": "32"}, {"size": "64"}]}}}, "dtype": {"type": "DT_FLOAT"}}}, {"name": "Func/StatefulPartitionedCall/input/_4", "op": "Const", "attr": {"value": {"tensor": {"dtype": "DT_FLOAT", "tensorShape": {"dim": [{"size": "64"}]}}}, "dtype": {"type": "DT_FLOAT"}}}, {"name": "Func/StatefulPartitionedCall/input/_5", "op": "Const", "attr": {"value": {"tensor": {"dtype": "DT_FLOAT", "tensorShape": {"dim": [{"size": "2"}, {"size": "2"}, {"size": "64"}, {"size": "64"}]}}}, "dtype": {"type": "DT_FLOAT"}}}, {"name": "Func/StatefulPartitionedCall/input/_6", "op": "Const", "attr": {"value": {"tensor": {"dtype": "DT_FLOAT", "tensorShape": {"dim": [{"size": "64"}]}}}, "dtype": {"type": "DT_FLOAT"}}}, {"name": "Func/StatefulPartitionedCall/input/_7", "op": "Const", "attr": {"value": {"tensor": {"dtype": "DT_FLOAT", "tensorShape": {"dim": [{"size": "3"}, {"size": "3"}, {"size": "64"}, {"size": "128"}]}}}, "dtype": {"type": "DT_FLOAT"}}}, {"name": "Func/StatefulPartitionedCall/input/_8", "op": "Const", "attr": {"value": {"tensor": {"dtype": "DT_FLOAT", "tensorShape": {"dim": [{"size": "128"}]}}}, "dtype": {"type": "DT_FLOAT"}}}, {"name": "Func/StatefulPartitionedCall/input/_9", "op": "Const", "attr": {"value": {"tensor": {"dtype": "DT_FLOAT", "tensorShape": {"dim": [{"size": "3"}, {"size": "3"}, {"size": "128"}, {"size": "64"}]}}}, "dtype": {"type": "DT_FLOAT"}}}, {"name": "Func/StatefulPartitionedCall/input/_10", "op": "Const", "attr": {"value": {"tensor": {"dtype": "DT_FLOAT", "tensorShape": {"dim": [{"size": "64"}]}}}, "dtype": {"type": "DT_FLOAT"}}}, {"name": "StatefulPartitionedCall/model/UpCunet2x/TensorArrayV2/element_shape", "op": "Const", "attr": {"value": {"tensor": {"dtype": "DT_INT32", "tensorShape": {}}}, "dtype": {"type": "DT_INT32"}}}, {"name": "StatefulPartitionedCall/model/UpCunet2x/TensorArrayV2/num_elements", "op": "Const", "attr": {"value": {"tensor": {"dtype": "DT_INT32", "tensorShape": {}}}, "dtype": {"type": "DT_INT32"}}}, {"name": "StatefulPartitionedCall/model/UpCunet2x/TensorArrayV2_1/element_shape", "op": "Const", "attr": {"value": {"tensor": {"dtype": "DT_INT32", "tensorShape": {}}}, "dtype": {"type": "DT_INT32"}}}, {"name": "StatefulPartitionedCall/model/UpCunet2x/TensorArrayV2_1/num_elements", "op": "Const", "attr": {"value": {"tensor": {"dtype": "DT_INT32", "tensorShape": {}}}, "dtype": {"type": "DT_INT32"}}}, {"name": "StatefulPartitionedCall/model/UpCunet2x/strided_slice_4/stack", "op": "Const", "attr": {"value": {"tensor": {"dtype": "DT_INT32", "tensorShape": {"dim": [{"size": "1"}]}}}, "dtype": {"type": "DT_INT32"}}}, {"name": "StatefulPartitionedCall/model/UpCunet2x/strided_slice_4/stack_1", "op": "Const", "attr": {"value": {"tensor": {"dtype": "DT_INT32", "tensorShape": {"dim": [{"size": "1"}]}}}, "dtype": {"type": "DT_INT32"}}}, {"name": "StatefulPartitionedCall/model/UpCunet2x/strided_slice_4/stack_2", "op": "Const", "attr": {"value": {"tensor": {"dtype": "DT_INT32", "tensorShape": {"dim": [{"size": "1"}]}}}, "dtype": {"type": "DT_INT32"}}}, {"name": "StatefulPartitionedCall/model/UpCunet2x/zeros/packed/1", "op": "Const", "attr": {"value": {"tensor": {"dtype": "DT_INT32", "tensorShape": {}}}, "dtype": {"type": "DT_INT32"}}}, {"name": "StatefulPartitionedCall/model/UpCunet2x/zeros/packed/2", "op": "Const", "attr": {"value": {"tensor": {"dtype": "DT_INT32", "tensorShape": {}}}, "dtype": {"type": "DT_INT32"}}}, {"name": "StatefulPartitionedCall/model/UpCunet2x/zeros/packed/3", "op": "Const", "attr": {"value": {"tensor": {"dtype": "DT_INT32", "tensorShape": {}}}, "dtype": {"type": "DT_INT32"}}}, {"name": "StatefulPartitionedCall/model/UpCunet2x/zeros/Const", "op": "Const", "attr": {"value": {"tensor": {"dtype": "DT_FLOAT", "tensorShape": {}}}, "dtype": {"type": "DT_FLOAT"}}}, {"name": "StatefulPartitionedCall/model/UpCunet2x/strided_slice_5/stack", "op": "Const", "attr": {"value": {"tensor": {"dtype": "DT_INT32", "tensorShape": {"dim": [{"size": "1"}]}}}, "dtype": {"type": "DT_INT32"}}}, {"name": "StatefulPartitionedCall/model/UpCunet2x/strided_slice_5/stack_1", "op": "Const", "attr": {"value": {"tensor": {"dtype": "DT_INT32", "tensorShape": {"dim": [{"size": "1"}]}}}, "dtype": {"type": "DT_INT32"}}}, {"name": "StatefulPartitionedCall/model/UpCunet2x/strided_slice_5/stack_2", "op": "Const", "attr": {"value": {"tensor": {"dtype": "DT_INT32", "tensorShape": {"dim": [{"size": "1"}]}}}, "dtype": {"type": "DT_INT32"}}}, {"name": "StatefulPartitionedCall/model/UpCunet2x/sub_8/y", "op": "Const", "attr": {"value": {"tensor": {"dtype": "DT_INT32", "tensorShape": {}}}, "dtype": {"type": "DT_INT32"}}}, {"name": "StatefulPartitionedCall/model/UpCunet2x/MirrorPad/paddings/0_1", "op": "Const", "attr": {"value": {"tensor": {"dtype": "DT_INT32", "tensorShape": {"dim": [{"size": "2"}]}}}, "dtype": {"type": "DT_INT32"}}}, {"name": "StatefulPartitionedCall/model/UpCunet2x/MirrorPad/paddings/1/0", "op": "Const", "attr": {"value": {"tensor": {"dtype": "DT_INT32", "tensorShape": {}}}, "dtype": {"type": "DT_INT32"}}}, {"name": "StatefulPartitionedCall/model/UpCunet2x/add_7/x", "op": "Const", "attr": {"value": {"tensor": {"dtype": "DT_INT32", "tensorShape": {}}}, "dtype": {"type": "DT_INT32"}}}, {"name": "StatefulPartitionedCall/model/UpCunet2x/sub_4/y", "op": "Const", "attr": {"value": {"tensor": {"dtype": "DT_INT32", "tensorShape": {}}}, "dtype": {"type": "DT_INT32"}}}, {"name": "StatefulPartitionedCall/model/UpCunet2x/add_5/y", "op": "Const", "attr": {"value": {"tensor": {"dtype": "DT_INT32", "tensorShape": {}}}, "dtype": {"type": "DT_INT32"}}}, {"name": "StatefulPartitionedCall/model/UpCunet2x/sub_2/y", "op": "Const", "attr": {"value": {"tensor": {"dtype": "DT_INT32", "tensorShape": {}}}, "dtype": {"type": "DT_INT32"}}}, {"name": "StatefulPartitionedCall/model/UpCunet2x/MirrorPad/paddings/2/0", "op": "Const", "attr": {"value": {"tensor": {"dtype": "DT_INT32", "tensorShape": {}}}, "dtype": {"type": "DT_INT32"}}}, {"name": "StatefulPartitionedCall/model/UpCunet2x/add_8/x", "op": "Const", "attr": {"value": {"tensor": {"dtype": "DT_INT32", "tensorShape": {}}}, "dtype": {"type": "DT_INT32"}}}, {"name": "StatefulPartitionedCall/model/UpCunet2x/sub_5/y", "op": "Const", "attr": {"value": {"tensor": {"dtype": "DT_INT32", "tensorShape": {}}}, "dtype": {"type": "DT_INT32"}}}, {"name": "StatefulPartitionedCall/model/UpCunet2x/add_6/y", "op": "Const", "attr": {"value": {"tensor": {"dtype": "DT_INT32", "tensorShape": {}}}, "dtype": {"type": "DT_INT32"}}}, {"name": "StatefulPartitionedCall/model/UpCunet2x/MirrorPad/paddings/3_1", "op": "Const", "attr": {"value": {"tensor": {"dtype": "DT_INT32", "tensorShape": {"dim": [{"size": "2"}]}}}, "dtype": {"type": "DT_INT32"}}}, {"name": "StatefulPartitionedCall/model/UpCunet2x/strided_slice_6/stack", "op": "Const", "attr": {"value": {"tensor": {"dtype": "DT_INT32", "tensorShape": {"dim": [{"size": "1"}]}}}, "dtype": {"type": "DT_INT32"}}}, {"name": "StatefulPartitionedCall/model/UpCunet2x/strided_slice_6/stack_1", "op": "Const", "attr": {"value": {"tensor": {"dtype": "DT_INT32", "tensorShape": {"dim": [{"size": "1"}]}}}, "dtype": {"type": "DT_INT32"}}}, {"name": "StatefulPartitionedCall/model/UpCunet2x/strided_slice_6/stack_2", "op": "Const", "attr": {"value": {"tensor": {"dtype": "DT_INT32", "tensorShape": {"dim": [{"size": "1"}]}}}, "dtype": {"type": "DT_INT32"}}}, {"name": "StatefulPartitionedCall/model/UpCunet2x/sub_9/y", "op": "Const", "attr": {"value": {"tensor": {"dtype": "DT_INT32", "tensorShape": {}}}, "dtype": {"type": "DT_INT32"}}}, {"name": "StatefulPartitionedCall/model/UpCunet2x/sub_3/y", "op": "Const", "attr": {"value": {"tensor": {"dtype": "DT_INT32", "tensorShape": {}}}, "dtype": {"type": "DT_INT32"}}}, {"name": "StatefulPartitionedCall/model/UpCunet2x/mul_2/y", "op": "Const", "attr": {"value": {"tensor": {"dtype": "DT_INT32", "tensorShape": {}}}, "dtype": {"type": "DT_INT32"}}}, {"name": "StatefulPartitionedCall/model/UpCunet2x/strided_slice_1/stack", "op": "Const", "attr": {"value": {"tensor": {"dtype": "DT_INT32", "tensorShape": {"dim": [{"size": "1"}]}}}, "dtype": {"type": "DT_INT32"}}}, {"name": "StatefulPartitionedCall/model/UpCunet2x/strided_slice_1/stack_1", "op": "Const", "attr": {"value": {"tensor": {"dtype": "DT_INT32", "tensorShape": {"dim": [{"size": "1"}]}}}, "dtype": {"type": "DT_INT32"}}}, {"name": "StatefulPartitionedCall/model/UpCunet2x/strided_slice_1/stack_2", "op": "Const", "attr": {"value": {"tensor": {"dtype": "DT_INT32", "tensorShape": {"dim": [{"size": "1"}]}}}, "dtype": {"type": "DT_INT32"}}}, {"name": "ConstantFolding/StatefulPartitionedCall/model/UpCunet2x/truediv_recip", "op": "Const", "attr": {"value": {"tensor": {"dtype": "DT_FLOAT", "tensorShape": {}}}, "dtype": {"type": "DT_FLOAT"}}}, {"name": "StatefulPartitionedCall/model/UpCunet2x/add/y", "op": "Const", "attr": {"value": {"tensor": {"dtype": "DT_FLOAT", "tensorShape": {}}}, "dtype": {"type": "DT_FLOAT"}}}, {"name": "StatefulPartitionedCall/model/UpCunet2x/strided_slice_2/stack", "op": "Const", "attr": {"value": {"tensor": {"dtype": "DT_INT32", "tensorShape": {"dim": [{"size": "1"}]}}}, "dtype": {"type": "DT_INT32"}}}, {"name": "StatefulPartitionedCall/model/UpCunet2x/strided_slice_2/stack_1", "op": "Const", "attr": {"value": {"tensor": {"dtype": "DT_INT32", "tensorShape": {"dim": [{"size": "1"}]}}}, "dtype": {"type": "DT_INT32"}}}, {"name": "StatefulPartitionedCall/model/UpCunet2x/strided_slice_2/stack_2", "op": "Const", "attr": {"value": {"tensor": {"dtype": "DT_INT32", "tensorShape": {"dim": [{"size": "1"}]}}}, "dtype": {"type": "DT_INT32"}}}, {"name": "StatefulPartitionedCall/model/UpCunet2x/floordiv_2/y", "op": "Const", "attr": {"value": {"tensor": {"dtype": "DT_INT32", "tensorShape": {}}}, "dtype": {"type": "DT_INT32"}}}, {"name": "input_bytes", "op": "Placeholder", "attr": {"shape": {"shape": {"dim": [{"size": "-1"}, {"size": "-1"}, {"size": "-1"}, {"size": "3"}]}}, "dtype": {"type": "DT_UINT8"}}}, {"name": "StatefulPartitionedCall/model/UpCunet2x/TensorArrayV2_8", "op": "TensorListReserve", "input": ["StatefulPartitionedCall/model/UpCunet2x/TensorArrayV2_8/element_shape", "StatefulPartitionedCall/model/UpCunet2x/TensorArrayV2_8/num_elements"], "attr": {"shape_type": {"type": "DT_INT32"}, "_has_manual_control_dependencies": {"b": true}, "element_dtype": {"type": "DT_FLOAT"}}, "experimentalType": {"typeId": "TFT_PRODUCT", "args": [{"typeId": "TFT_ARRAY", "args": [{"typeId": "TFT_TENSOR", "args": [{"typeId": "TFT_FLOAT"}]}]}]}}, {"name": "StatefulPartitionedCall/model/UpCunet2x/TensorArrayV2_2", "op": "TensorListReserve", "input": ["StatefulPartitionedCall/model/UpCunet2x/TensorArrayV2_2/element_shape", "StatefulPartitionedCall/model/UpCunet2x/TensorArrayV2_2/num_elements"], "attr": {"shape_type": {"type": "DT_INT32"}, "_has_manual_control_dependencies": {"b": true}, "element_dtype": {"type": "DT_FLOAT"}}, "experimentalType": {"typeId": "TFT_PRODUCT", "args": [{"typeId": "TFT_ARRAY", "args": [{"typeId": "TFT_TENSOR", "args": [{"typeId": "TFT_FLOAT"}]}]}]}}, {"name": "StatefulPartitionedCall/model/UpCunet2x/TensorArrayV2", "op": "TensorListReserve", "input": ["StatefulPartitionedCall/model/UpCunet2x/TensorArrayV2/element_shape", "StatefulPartitionedCall/model/UpCunet2x/TensorArrayV2/num_elements"], "attr": {"shape_type": {"type": "DT_INT32"}, "element_dtype": {"type": "DT_FLOAT"}}, "experimentalType": {"typeId": "TFT_PRODUCT", "args": [{"typeId": "TFT_ARRAY", "args": [{"typeId": "TFT_TENSOR", "args": [{"typeId": "TFT_FLOAT"}]}]}]}}, {"name": "StatefulPartitionedCall/model/UpCunet2x/TensorArrayV2_1", "op": "TensorListReserve", "input": ["StatefulPartitionedCall/model/UpCunet2x/TensorArrayV2_1/element_shape", "StatefulPartitionedCall/model/UpCunet2x/TensorArrayV2_1/num_elements"], "attr": {"shape_type": {"type": "DT_INT32"}, "_has_manual_control_dependencies": {"b": true}, "element_dtype": {"type": "DT_FLOAT"}}, "experimentalType": {"typeId": "TFT_PRODUCT", "args": [{"typeId": "TFT_ARRAY", "args": [{"typeId": "TFT_TENSOR", "args": [{"typeId": "TFT_FLOAT"}]}]}]}}, {"name": "StatefulPartitionedCall/model/UpCunet2x/Cast", "op": "Cast", "input": ["input_bytes"], "attr": {"SrcT": {"type": "DT_UINT8"}, "DstT": {"type": "DT_FLOAT"}, "Truncate": {"b": false}}}, {"name": "StatefulPartitionedCall/model/UpCunet2x/truediv", "op": "Mul", "input": ["StatefulPartitionedCall/model/UpCunet2x/Cast", "ConstantFolding/StatefulPartitionedCall/model/UpCunet2x/truediv_recip"], "attr": {"T": {"type": "DT_FLOAT"}}}, {"name": "StatefulPartitionedCall/model/UpCunet2x/add", "op": "AddV2", "input": ["StatefulPartitionedCall/model/UpCunet2x/truediv", "StatefulPartitionedCall/model/UpCunet2x/add/y"], "attr": {"T": {"type": "DT_FLOAT"}}}, {"name": "StatefulPartitionedCall/model/UpCunet2x/Shape", "op": "Shape", "input": ["StatefulPartitionedCall/model/UpCunet2x/add"], "attr": {"T": {"type": "DT_FLOAT"}, "out_type": {"type": "DT_INT32"}}, "experimentalType": {"typeId": "TFT_PRODUCT", "args": [{"typeId": "TFT_SHAPE_TENSOR", "args": [{"typeId": "TFT_INT32"}]}]}}, {"name": "StatefulPartitionedCall/model/UpCunet2x/strided_slice_1", "op": "StridedSlice", "input": ["StatefulPartitionedCall/model/UpCunet2x/Shape", "StatefulPartitionedCall/model/UpCunet2x/strided_slice_1/stack", "StatefulPartitionedCall/model/UpCunet2x/strided_slice_1/stack_1", "StatefulPartitionedCall/model/UpCunet2x/strided_slice_1/stack_2"], "attr": {"shrink_axis_mask": {"i": "1"}, "new_axis_mask": {"i": "0"}, "Index": {"type": "DT_INT32"}, "begin_mask": {"i": "0"}, "T": {"type": "DT_INT32"}, "end_mask": {"i": "0"}, "ellipsis_mask": {"i": "0"}}}, {"name": "StatefulPartitionedCall/model/UpCunet2x/strided_slice_2", "op": "StridedSlice", "input": ["StatefulPartitionedCall/model/UpCunet2x/Shape", "StatefulPartitionedCall/model/UpCunet2x/strided_slice_2/stack", "StatefulPartitionedCall/model/UpCunet2x/strided_slice_2/stack_1", "StatefulPartitionedCall/model/UpCunet2x/strided_slice_2/stack_2"], "attr": {"shrink_axis_mask": {"i": "1"}, "Index": {"type": "DT_INT32"}, "new_axis_mask": {"i": "0"}, "begin_mask": {"i": "0"}, "end_mask": {"i": "0"}, "T": {"type": "DT_INT32"}, "ellipsis_mask": {"i": "0"}}}, {"name": "StatefulPartitionedCall/model/UpCunet2x/sub_4", "op": "Sub", "input": ["StatefulPartitionedCall/model/UpCunet2x/strided_slice_1", "StatefulPartitionedCall/model/UpCunet2x/sub_4/y"], "attr": {"T": {"type": "DT_INT32"}}}, {"name": "StatefulPartitionedCall/model/UpCunet2x/sub_2", "op": "Sub", "input": ["StatefulPartitionedCall/model/UpCunet2x/strided_slice_1", "StatefulPartitionedCall/model/UpCunet2x/sub_2/y"], "attr": {"T": {"type": "DT_INT32"}}}, {"name": "StatefulPartitionedCall/model/UpCunet2x/sub_5", "op": "Sub", "input": ["StatefulPartitionedCall/model/UpCunet2x/strided_slice_2", "StatefulPartitionedCall/model/UpCunet2x/sub_5/y"], "attr": {"T": {"type": "DT_INT32"}}}, {"name": "StatefulPartitionedCall/model/UpCunet2x/sub_3", "op": "Sub", "input": ["StatefulPartitionedCall/model/UpCunet2x/strided_slice_2", "StatefulPartitionedCall/model/UpCunet2x/sub_3/y"], "attr": {"T": {"type": "DT_INT32"}}}, {"name": "StatefulPartitionedCall/model/UpCunet2x/Minimum", "op": "Minimum", "input": ["StatefulPartitionedCall/model/UpCunet2x/strided_slice_1", "StatefulPartitionedCall/model/UpCunet2x/strided_slice_2"], "attr": {"T": {"type": "DT_INT32"}}}, {"name": "StatefulPartitionedCall/model/UpCunet2x/floordiv_2", "op": "FloorDiv", "input": ["StatefulPartitionedCall/model/UpCunet2x/Minimum", "StatefulPartitionedCall/model/UpCunet2x/floordiv_2/y"], "attr": {"T": {"type": "DT_INT32"}}}, {"name": "StatefulPartitionedCall/model/UpCunet2x/mul_2", "op": "Mul", "input": ["StatefulPartitionedCall/model/UpCunet2x/floordiv_2", "StatefulPartitionedCall/model/UpCunet2x/mul_2/y"], "attr": {"T": {"type": "DT_INT32"}}}, {"name": "StatefulPartitionedCall/model/UpCunet2x/floordiv_3", "op": "FloorDiv", "input": ["StatefulPartitionedCall/model/UpCunet2x/sub_2", "StatefulPartitionedCall/model/UpCunet2x/mul_2"], "attr": {"T": {"type": "DT_INT32"}}}, {"name": "StatefulPartitionedCall/model/UpCunet2x/floordiv_5", "op": "FloorDiv", "input": ["StatefulPartitionedCall/model/UpCunet2x/sub_3", "StatefulPartitionedCall/model/UpCunet2x/mul_2"], "attr": {"T": {"type": "DT_INT32"}}}, {"name": "StatefulPartitionedCall/model/UpCunet2x/mul_3", "op": "Mul", "input": ["StatefulPartitionedCall/model/UpCunet2x/floordiv_3", "StatefulPartitionedCall/model/UpCunet2x/mul_2"], "attr": {"T": {"type": "DT_INT32"}}}, {"name": "StatefulPartitionedCall/model/UpCunet2x/mul_4", "op": "Mul", "input": ["StatefulPartitionedCall/model/UpCunet2x/floordiv_5", "StatefulPartitionedCall/model/UpCunet2x/mul_2"], "attr": {"T": {"type": "DT_INT32"}}}, {"name": "StatefulPartitionedCall/model/UpCunet2x/add_3", "op": "AddV2", "input": ["StatefulPartitionedCall/model/UpCunet2x/mul_3", "StatefulPartitionedCall/model/UpCunet2x/mul_2"], "attr": {"T": {"type": "DT_INT32"}}}, {"name": "StatefulPartitionedCall/model/UpCunet2x/add_4", "op": "AddV2", "input": ["StatefulPartitionedCall/model/UpCunet2x/mul_4", "StatefulPartitionedCall/model/UpCunet2x/mul_2"], "attr": {"T": {"type": "DT_INT32"}}}, {"name": "StatefulPartitionedCall/model/UpCunet2x/floordiv_4", "op": "FloorDiv", "input": ["StatefulPartitionedCall/model/UpCunet2x/add_3", "StatefulPartitionedCall/model/UpCunet2x/floordiv_2"], "attr": {"T": {"type": "DT_INT32"}}}, {"name": "StatefulPartitionedCall/model/UpCunet2x/floordiv_6", "op": "FloorDiv", "input": ["StatefulPartitionedCall/model/UpCunet2x/add_4", "StatefulPartitionedCall/model/UpCunet2x/floordiv_2"], "attr": {"T": {"type": "DT_INT32"}}}, {"name": "StatefulPartitionedCall/model/UpCunet2x/floordiv_7", "op": "FloorDiv", "input": ["StatefulPartitionedCall/model/UpCunet2x/sub_4", "StatefulPartitionedCall/model/UpCunet2x/floordiv_4"], "attr": {"T": {"type": "DT_INT32"}}}, {"name": "StatefulPartitionedCall/model/UpCunet2x/floordiv_8", "op": "FloorDiv", "input": ["StatefulPartitionedCall/model/UpCunet2x/sub_5", "StatefulPartitionedCall/model/UpCunet2x/floordiv_6"], "attr": {"T": {"type": "DT_INT32"}}}, {"name": "StatefulPartitionedCall/model/UpCunet2x/add_5", "op": "AddV2", "input": ["StatefulPartitionedCall/model/UpCunet2x/floordiv_7", "StatefulPartitionedCall/model/UpCunet2x/add_5/y"], "attr": {"T": {"type": "DT_INT32"}}}, {"name": "StatefulPartitionedCall/model/UpCunet2x/add_6", "op": "AddV2", "input": ["StatefulPartitionedCall/model/UpCunet2x/floordiv_8", "StatefulPartitionedCall/model/UpCunet2x/add_6/y"], "attr": {"T": {"type": "DT_INT32"}}}, {"name": "StatefulPartitionedCall/model/UpCunet2x/mul_5", "op": "Mul", "input": ["StatefulPartitionedCall/model/UpCunet2x/add_5", "StatefulPartitionedCall/model/UpCunet2x/floordiv_4"], "attr": {"T": {"type": "DT_INT32"}}}, {"name": "StatefulPartitionedCall/model/UpCunet2x/mul_6", "op": "Mul", "input": ["StatefulPartitionedCall/model/UpCunet2x/add_6", "StatefulPartitionedCall/model/UpCunet2x/floordiv_6"], "attr": {"T": {"type": "DT_INT32"}}}, {"name": "StatefulPartitionedCall/model/UpCunet2x/add_7", "op": "AddV2", "input": ["StatefulPartitionedCall/model/UpCunet2x/add_7/x", "StatefulPartitionedCall/model/UpCunet2x/mul_5"], "attr": {"T": {"type": "DT_INT32"}}}, {"name": "StatefulPartitionedCall/model/UpCunet2x/add_8", "op": "AddV2", "input": ["StatefulPartitionedCall/model/UpCunet2x/add_8/x", "StatefulPartitionedCall/model/UpCunet2x/mul_6"], "attr": {"T": {"type": "DT_INT32"}}}, {"name": "StatefulPartitionedCall/model/UpCunet2x/sub_6", "op": "Sub", "input": ["StatefulPartitionedCall/model/UpCunet2x/add_7", "StatefulPartitionedCall/model/UpCunet2x/strided_slice_1"], "attr": {"T": {"type": "DT_INT32"}}}, {"name": "StatefulPartitionedCall/model/UpCunet2x/sub_7", "op": "Sub", "input": ["StatefulPartitionedCall/model/UpCunet2x/add_8", "StatefulPartitionedCall/model/UpCunet2x/strided_slice_2"], "attr": {"T": {"type": "DT_INT32"}}}, {"name": "StatefulPartitionedCall/model/UpCunet2x/MirrorPad/paddings/1", "op": "Pack", "input": ["StatefulPartitionedCall/model/UpCunet2x/MirrorPad/paddings/1/0", "StatefulPartitionedCall/model/UpCunet2x/sub_6"], "attr": {"N": {"i": "2"}, "axis": {"i": "0"}, "T": {"type": "DT_INT32"}}}, {"name": "StatefulPartitionedCall/model/UpCunet2x/MirrorPad/paddings/2", "op": "Pack", "input": ["StatefulPartitionedCall/model/UpCunet2x/MirrorPad/paddings/2/0", "StatefulPartitionedCall/model/UpCunet2x/sub_7"], "attr": {"N": {"i": "2"}, "axis": {"i": "0"}, "T": {"type": "DT_INT32"}}}, {"name": "StatefulPartitionedCall/model/UpCunet2x/MirrorPad/paddings", "op": "Pack", "input": ["StatefulPartitionedCall/model/UpCunet2x/MirrorPad/paddings/0_1", "StatefulPartitionedCall/model/UpCunet2x/MirrorPad/paddings/1", "StatefulPartitionedCall/model/UpCunet2x/MirrorPad/paddings/2", "StatefulPartitionedCall/model/UpCunet2x/MirrorPad/paddings/3_1"], "attr": {"N": {"i": "4"}, "axis": {"i": "0"}, "T": {"type": "DT_INT32"}}}, {"name": "StatefulPartitionedCall/model/UpCunet2x/MirrorPad", "op": "MirrorPad", "input": ["StatefulPartitionedCall/model/UpCunet2x/add", "StatefulPartitionedCall/model/UpCunet2x/MirrorPad/paddings"], "attr": {"Tpaddings": {"type": "DT_INT32"}, "_has_manual_control_dependencies": {"b": true}, "T": {"type": "DT_FLOAT"}, "mode": {"s": "UkVGTEVDVA=="}}}, {"name": "StatefulPartitionedCall/model/UpCunet2x/Shape_1", "op": "Shape", "input": ["StatefulPartitionedCall/model/UpCunet2x/MirrorPad"], "attr": {"T": {"type": "DT_FLOAT"}, "out_type": {"type": "DT_INT32"}}, "experimentalType": {"typeId": "TFT_PRODUCT", "args": [{"typeId": "TFT_SHAPE_TENSOR", "args": [{"typeId": "TFT_INT32"}]}]}}, {"name": "StatefulPartitionedCall/model/UpCunet2x/strided_slice_4", "op": "StridedSlice", "input": ["StatefulPartitionedCall/model/UpCunet2x/Shape_1", "StatefulPartitionedCall/model/UpCunet2x/strided_slice_4/stack", "StatefulPartitionedCall/model/UpCunet2x/strided_slice_4/stack_1", "StatefulPartitionedCall/model/UpCunet2x/strided_slice_4/stack_2"], "attr": {"shrink_axis_mask": {"i": "1"}, "_has_manual_control_dependencies": {"b": true}, "new_axis_mask": {"i": "0"}, "Index": {"type": "DT_INT32"}, "begin_mask": {"i": "0"}, "T": {"type": "DT_INT32"}, "end_mask": {"i": "0"}, "ellipsis_mask": {"i": "0"}}}, {"name": "StatefulPartitionedCall/model/UpCunet2x/strided_slice_5", "op": "StridedSlice", "input": ["StatefulPartitionedCall/model/UpCunet2x/Shape_1", "StatefulPartitionedCall/model/UpCunet2x/strided_slice_5/stack", "StatefulPartitionedCall/model/UpCunet2x/strided_slice_5/stack_1", "StatefulPartitionedCall/model/UpCunet2x/strided_slice_5/stack_2"], "attr": {"shrink_axis_mask": {"i": "1"}, "Index": {"type": "DT_INT32"}, "new_axis_mask": {"i": "0"}, "begin_mask": {"i": "0"}, "T": {"type": "DT_INT32"}, "end_mask": {"i": "0"}, "ellipsis_mask": {"i": "0"}}}, {"name": "StatefulPartitionedCall/model/UpCunet2x/strided_slice_6", "op": "StridedSlice", "input": ["StatefulPartitionedCall/model/UpCunet2x/Shape_1", "StatefulPartitionedCall/model/UpCunet2x/strided_slice_6/stack", "StatefulPartitionedCall/model/UpCunet2x/strided_slice_6/stack_1", "StatefulPartitionedCall/model/UpCunet2x/strided_slice_6/stack_2"], "attr": {"shrink_axis_mask": {"i": "1"}, "new_axis_mask": {"i": "0"}, "Index": {"type": "DT_INT32"}, "begin_mask": {"i": "0"}, "end_mask": {"i": "0"}, "T": {"type": "DT_INT32"}, "ellipsis_mask": {"i": "0"}}}, {"name": "StatefulPartitionedCall/model/UpCunet2x/zeros/packed", "op": "Pack", "input": ["StatefulPartitionedCall/model/UpCunet2x/strided_slice_4", "StatefulPartitionedCall/model/UpCunet2x/zeros/packed/1", "StatefulPartitionedCall/model/UpCunet2x/zeros/packed/2", "StatefulPartitionedCall/model/UpCunet2x/zeros/packed/3"], "attr": {"N": {"i": "4"}, "axis": {"i": "0"}, "T": {"type": "DT_INT32"}}}, {"name": "StatefulPartitionedCall/model/UpCunet2x/sub_8", "op": "Sub", "input": ["StatefulPartitionedCall/model/UpCunet2x/strided_slice_5", "StatefulPartitionedCall/model/UpCunet2x/sub_8/y"], "attr": {"T": {"type": "DT_INT32"}}}, {"name": "StatefulPartitionedCall/model/UpCunet2x/sub_9", "op": "Sub", "input": ["StatefulPartitionedCall/model/UpCunet2x/strided_slice_6", "StatefulPartitionedCall/model/UpCunet2x/sub_9/y"], "attr": {"T": {"type": "DT_INT32"}}}, {"name": "StatefulPartitionedCall/model/UpCunet2x/zeros", "op": "Fill", "input": ["StatefulPartitionedCall/model/UpCunet2x/zeros/packed", "StatefulPartitionedCall/model/UpCunet2x/zeros/Const"], "attr": {"T": {"type": "DT_FLOAT"}, "index_type": {"type": "DT_INT32"}}}, {"name": "StatefulPartitionedCall/model/UpCunet2x/floordiv_9", "op": "FloorDiv", "input": ["StatefulPartitionedCall/model/UpCunet2x/sub_8", "StatefulPartitionedCall/model/UpCunet2x/floordiv_4"], "attr": {"T": {"type": "DT_INT32"}}}, {"name": "StatefulPartitionedCall/model/UpCunet2x/floordiv_10", "op": "FloorDiv", "input": ["StatefulPartitionedCall/model/UpCunet2x/sub_9", "StatefulPartitionedCall/model/UpCunet2x/floordiv_6"], "attr": {"T": {"type": "DT_INT32"}}}, {"name": "StatefulPartitionedCall/model/UpCunet2x/TensorArrayV2_16", "op": "TensorListReserve", "input": ["StatefulPartitionedCall/model/UpCunet2x/TensorArrayV2_16/element_shape", "StatefulPartitionedCall/model/UpCunet2x/floordiv_9"], "device": "/device:CPU:0", "attr": {"shape_type": {"type": "DT_INT32"}, "element_dtype": {"type": "DT_UINT8"}}, "experimentalType": {"typeId": "TFT_PRODUCT", "args": [{"typeId": "TFT_ARRAY", "args": [{"typeId": "TFT_TENSOR", "args": [{"typeId": "TFT_UINT8"}]}]}]}}, {"name": "StatefulPartitionedCall/model/UpCunet2x/mul_10", "op": "Mul", "input": ["StatefulPartitionedCall/model/UpCunet2x/floordiv_9", "StatefulPartitionedCall/model/UpCunet2x/floordiv_10"], "attr": {"_has_manual_control_dependencies": {"b": true}, "T": {"type": "DT_INT32"}}}, {"name": "StatefulPartitionedCall/model/UpCunet2x/mul_9", "op": "Mul", "input": ["StatefulPartitionedCall/model/UpCunet2x/floordiv_9", "StatefulPartitionedCall/model/UpCunet2x/floordiv_10"], "attr": {"_has_manual_control_dependencies": {"b": true}, "T": {"type": "DT_INT32"}}}, {"name": "StatefulPartitionedCall/model/UpCunet2x/mul_8", "op": "Mul", "input": ["StatefulPartitionedCall/model/UpCunet2x/floordiv_9", "StatefulPartitionedCall/model/UpCunet2x/floordiv_10"], "attr": {"_has_manual_control_dependencies": {"b": true}, "T": {"type": "DT_INT32"}}}, {"name": "StatefulPartitionedCall/model/UpCunet2x/mul_7", "op": "Mul", "input": ["StatefulPartitionedCall/model/UpCunet2x/floordiv_9", "StatefulPartitionedCall/model/UpCunet2x/floordiv_10"], "attr": {"_has_manual_control_dependencies": {"b": true}, "T": {"type": "DT_INT32"}}}, {"name": "StatefulPartitionedCall/model/UpCunet2x/while/LoopControlInputs/_89", "op": "NoOp", "input": ["^StatefulPartitionedCall/model/UpCunet2x/TensorArrayV2", "^StatefulPartitionedCall/model/UpCunet2x/TensorArrayV2_1", "^StatefulPartitionedCall/model/UpCunet2x/zeros", "^StatefulPartitionedCall/model/UpCunet2x/mul_7"], "attr": {"_has_manual_control_dependencies": {"b": true}}}, {"name": "StatefulPartitionedCall/model/UpCunet2x/while/enter/_72", "op": "Enter", "input": ["StatefulPartitionedCall/model/UpCunet2x/TensorArrayV2_1", "^StatefulPartitionedCall/model/UpCunet2x/while/LoopControlInputs/_89"], "attr": {"is_constant": {"b": false}, "frame_name": {"s": "U3RhdGVmdWxQYXJ0aXRpb25lZENhbGwvbW9kZWwvVXBDdW5ldDJ4L3doaWxl"}, "T": {"type": "DT_VARIANT"}, "parallel_iterations": {"i": "10"}}}, {"name": "StatefulPartitionedCall/model/UpCunet2x/while/enter/_69", "op": "Enter", "input": ["StatefulPartitionedCall/model/UpCunet2x/Const", "^StatefulPartitionedCall/model/UpCunet2x/while/LoopControlInputs/_89"], "attr": {"is_constant": {"b": false}, "frame_name": {"s": "U3RhdGVmdWxQYXJ0aXRpb25lZENhbGwvbW9kZWwvVXBDdW5ldDJ4L3doaWxl"}, "T": {"type": "DT_INT32"}, "parallel_iterations": {"i": "10"}}}, {"name": "StatefulPartitionedCall/model/UpCunet2x/while/enter/_71", "op": "Enter", "input": ["StatefulPartitionedCall/model/UpCunet2x/TensorArrayV2", "^StatefulPartitionedCall/model/UpCunet2x/while/LoopControlInputs/_89"], "attr": {"is_constant": {"b": false}, "frame_name": {"s": "U3RhdGVmdWxQYXJ0aXRpb25lZENhbGwvbW9kZWwvVXBDdW5ldDJ4L3doaWxl"}, "T": {"type": "DT_VARIANT"}, "parallel_iterations": {"i": "10"}}}, {"name": "StatefulPartitionedCall/model/UpCunet2x/while/enter/_73", "op": "Enter", "input": ["StatefulPartitionedCall/model/UpCunet2x/mul_7", "^StatefulPartitionedCall/model/UpCunet2x/while/LoopControlInputs/_89"], "attr": {"is_constant": {"b": false}, "frame_name": {"s": "U3RhdGVmdWxQYXJ0aXRpb25lZENhbGwvbW9kZWwvVXBDdW5ldDJ4L3doaWxl"}, "T": {"type": "DT_INT32"}, "parallel_iterations": {"i": "10"}}}, {"name": "StatefulPartitionedCall/model/UpCunet2x/while/enter/_68", "op": "Enter", "input": ["StatefulPartitionedCall/model/UpCunet2x/strided_slice_4", "^StatefulPartitionedCall/model/UpCunet2x/while/LoopControlInputs/_89"], "attr": {"is_constant": {"b": false}, "frame_name": {"s": "U3RhdGVmdWxQYXJ0aXRpb25lZENhbGwvbW9kZWwvVXBDdW5ldDJ4L3doaWxl"}, "T": {"type": "DT_INT32"}, "parallel_iterations": {"i": "10"}}}, {"name": "StatefulPartitionedCall/model/UpCunet2x/while/enter/_65", "op": "Enter", "input": ["StatefulPartitionedCall/model/UpCunet2x/while/loop_counter", "^StatefulPartitionedCall/model/UpCunet2x/while/LoopControlInputs/_89"], "attr": {"is_constant": {"b": false}, "frame_name": {"s": "U3RhdGVmdWxQYXJ0aXRpb25lZENhbGwvbW9kZWwvVXBDdW5ldDJ4L3doaWxl"}, "T": {"type": "DT_INT32"}, "parallel_iterations": {"i": "10"}}}, {"name": "StatefulPartitionedCall/model/UpCunet2x/while/enter/_66", "op": "Enter", "input": ["StatefulPartitionedCall/model/UpCunet2x/while/maximum_iterations", "^StatefulPartitionedCall/model/UpCunet2x/while/LoopControlInputs/_89"], "attr": {"is_constant": {"b": false}, "frame_name": {"s": "U3RhdGVmdWxQYXJ0aXRpb25lZENhbGwvbW9kZWwvVXBDdW5ldDJ4L3doaWxl"}, "T": {"type": "DT_INT32"}, "parallel_iterations": {"i": "10"}}}, {"name": "StatefulPartitionedCall/model/UpCunet2x/while/enter/_70", "op": "Enter", "input": ["StatefulPartitionedCall/model/UpCunet2x/zeros", "^StatefulPartitionedCall/model/UpCunet2x/while/LoopControlInputs/_89"], "attr": {"is_constant": {"b": false}, "frame_name": {"s": "U3RhdGVmdWxQYXJ0aXRpb25lZENhbGwvbW9kZWwvVXBDdW5ldDJ4L3doaWxl"}, "T": {"type": "DT_FLOAT"}, "parallel_iterations": {"i": "10"}}}, {"name": "StatefulPartitionedCall/model/UpCunet2x/while/enter/_75", "op": "Enter", "input": ["StatefulPartitionedCall/model/UpCunet2x/floordiv_4", "^StatefulPartitionedCall/model/UpCunet2x/while/LoopControlInputs/_89"], "attr": {"is_constant": {"b": false}, "frame_name": {"s": "U3RhdGVmdWxQYXJ0aXRpb25lZENhbGwvbW9kZWwvVXBDdW5ldDJ4L3doaWxl"}, "T": {"type": "DT_INT32"}, "parallel_iterations": {"i": "10"}}}, {"name": "StatefulPartitionedCall/model/UpCunet2x/while/enter/_67", "op": "Enter", "input": ["StatefulPartitionedCall/model/UpCunet2x/range/start", "^StatefulPartitionedCall/model/UpCunet2x/while/LoopControlInputs/_89"], "attr": {"is_constant": {"b": false}, "frame_name": {"s": "U3RhdGVmdWxQYXJ0aXRpb25lZENhbGwvbW9kZWwvVXBDdW5ldDJ4L3doaWxl"}, "T": {"type": "DT_INT32"}, "parallel_iterations": {"i": "10"}}}, {"name": "StatefulPartitionedCall/model/UpCunet2x/while/enter/_88", "op": "Enter", "input": ["StatefulPartitionedCall/model/UpCunet2x/range/delta", "^StatefulPartitionedCall/model/UpCunet2x/while/LoopControlInputs/_89"], "attr": {"is_constant": {"b": false}, "frame_name": {"s": "U3RhdGVmdWxQYXJ0aXRpb25lZENhbGwvbW9kZWwvVXBDdW5ldDJ4L3doaWxl"}, "T": {"type": "DT_INT32"}, "parallel_iterations": {"i": "10"}}}, {"name": "StatefulPartitionedCall/model/UpCunet2x/while/enter/_74", "op": "Enter", "input": ["StatefulPartitionedCall/model/UpCunet2x/floordiv_9", "^StatefulPartitionedCall/model/UpCunet2x/while/LoopControlInputs/_89"], "attr": {"is_constant": {"b": false}, "frame_name": {"s": "U3RhdGVmdWxQYXJ0aXRpb25lZENhbGwvbW9kZWwvVXBDdW5ldDJ4L3doaWxl"}, "T": {"type": "DT_INT32"}, "parallel_iterations": {"i": "10"}}}, {"name": "StatefulPartitionedCall/model/UpCunet2x/while/enter/_76", "op": "Enter", "input": ["StatefulPartitionedCall/model/UpCunet2x/floordiv_6", "^StatefulPartitionedCall/model/UpCunet2x/while/LoopControlInputs/_89"], "attr": {"is_constant": {"b": false}, "frame_name": {"s": "U3RhdGVmdWxQYXJ0aXRpb25lZENhbGwvbW9kZWwvVXBDdW5ldDJ4L3doaWxl"}, "T": {"type": "DT_INT32"}, "parallel_iterations": {"i": "10"}}}, {"name": "StatefulPartitionedCall/model/UpCunet2x/while/enter/_78", "op": "Enter", "input": ["Func/StatefulPartitionedCall/input/_1", "^StatefulPartitionedCall/model/UpCunet2x/while/LoopControlInputs/_89"], "attr": {"is_constant": {"b": true}, "_has_manual_control_dependencies": {"b": true}, "T": {"type": "DT_FLOAT"}, "frame_name": {"s": "U3RhdGVmdWxQYXJ0aXRpb25lZENhbGwvbW9kZWwvVXBDdW5ldDJ4L3doaWxl"}, "parallel_iterations": {"i": "10"}}}, {"name": "StatefulPartitionedCall/model/UpCunet2x/while/enter/_79", "op": "Enter", "input": ["Func/StatefulPartitionedCall/input/_2", "^StatefulPartitionedCall/model/UpCunet2x/while/LoopControlInputs/_89"], "attr": {"is_constant": {"b": true}, "_has_manual_control_dependencies": {"b": true}, "T": {"type": "DT_FLOAT"}, "frame_name": {"s": "U3RhdGVmdWxQYXJ0aXRpb25lZENhbGwvbW9kZWwvVXBDdW5ldDJ4L3doaWxl"}, "parallel_iterations": {"i": "10"}}}, {"name": "StatefulPartitionedCall/model/UpCunet2x/while/enter/_80", "op": "Enter", "input": ["Func/StatefulPartitionedCall/input/_3", "^StatefulPartitionedCall/model/UpCunet2x/while/LoopControlInputs/_89"], "attr": {"is_constant": {"b": true}, "_has_manual_control_dependencies": {"b": true}, "T": {"type": "DT_FLOAT"}, "frame_name": {"s": "U3RhdGVmdWxQYXJ0aXRpb25lZENhbGwvbW9kZWwvVXBDdW5ldDJ4L3doaWxl"}, "parallel_iterations": {"i": "10"}}}, {"name": "StatefulPartitionedCall/model/UpCunet2x/while/enter/_81", "op": "Enter", "input": ["Func/StatefulPartitionedCall/input/_4", "^StatefulPartitionedCall/model/UpCunet2x/while/LoopControlInputs/_89"], "attr": {"is_constant": {"b": true}, "_has_manual_control_dependencies": {"b": true}, "T": {"type": "DT_FLOAT"}, "frame_name": {"s": "U3RhdGVmdWxQYXJ0aXRpb25lZENhbGwvbW9kZWwvVXBDdW5ldDJ4L3doaWxl"}, "parallel_iterations": {"i": "10"}}}, {"name": "StatefulPartitionedCall/model/UpCunet2x/while/enter/_82", "op": "Enter", "input": ["Func/StatefulPartitionedCall/input/_5", "^StatefulPartitionedCall/model/UpCunet2x/while/LoopControlInputs/_89"], "attr": {"is_constant": {"b": true}, "_has_manual_control_dependencies": {"b": true}, "T": {"type": "DT_FLOAT"}, "frame_name": {"s": "U3RhdGVmdWxQYXJ0aXRpb25lZENhbGwvbW9kZWwvVXBDdW5ldDJ4L3doaWxl"}, "parallel_iterations": {"i": "10"}}}, {"name": "StatefulPartitionedCall/model/UpCunet2x/while/enter/_83", "op": "Enter", "input": ["Func/StatefulPartitionedCall/input/_6", "^StatefulPartitionedCall/model/UpCunet2x/while/LoopControlInputs/_89"], "attr": {"is_constant": {"b": true}, "_has_manual_control_dependencies": {"b": true}, "T": {"type": "DT_FLOAT"}, "frame_name": {"s": "U3RhdGVmdWxQYXJ0aXRpb25lZENhbGwvbW9kZWwvVXBDdW5ldDJ4L3doaWxl"}, "parallel_iterations": {"i": "10"}}}, {"name": "StatefulPartitionedCall/model/UpCunet2x/while/enter/_84", "op": "Enter", "input": ["Func/StatefulPartitionedCall/input/_7", "^StatefulPartitionedCall/model/UpCunet2x/while/LoopControlInputs/_89"], "attr": {"is_constant": {"b": true}, "_has_manual_control_dependencies": {"b": true}, "T": {"type": "DT_FLOAT"}, "frame_name": {"s": "U3RhdGVmdWxQYXJ0aXRpb25lZENhbGwvbW9kZWwvVXBDdW5ldDJ4L3doaWxl"}, "parallel_iterations": {"i": "10"}}}, {"name": "StatefulPartitionedCall/model/UpCunet2x/while/enter/_85", "op": "Enter", "input": ["Func/StatefulPartitionedCall/input/_8", "^StatefulPartitionedCall/model/UpCunet2x/while/LoopControlInputs/_89"], "attr": {"is_constant": {"b": true}, "_has_manual_control_dependencies": {"b": true}, "T": {"type": "DT_FLOAT"}, "frame_name": {"s": "U3RhdGVmdWxQYXJ0aXRpb25lZENhbGwvbW9kZWwvVXBDdW5ldDJ4L3doaWxl"}, "parallel_iterations": {"i": "10"}}}, {"name": "StatefulPartitionedCall/model/UpCunet2x/while/enter/_86", "op": "Enter", "input": ["Func/StatefulPartitionedCall/input/_9", "^StatefulPartitionedCall/model/UpCunet2x/while/LoopControlInputs/_89"], "attr": {"is_constant": {"b": true}, "_has_manual_control_dependencies": {"b": true}, "T": {"type": "DT_FLOAT"}, "frame_name": {"s": "U3RhdGVmdWxQYXJ0aXRpb25lZENhbGwvbW9kZWwvVXBDdW5ldDJ4L3doaWxl"}, "parallel_iterations": {"i": "10"}}}, {"name": "StatefulPartitionedCall/model/UpCunet2x/while/enter/_87", "op": "Enter", "input": ["Func/StatefulPartitionedCall/input/_10", "^StatefulPartitionedCall/model/UpCunet2x/while/LoopControlInputs/_89"], "attr": {"is_constant": {"b": true}, "_has_manual_control_dependencies": {"b": true}, "T": {"type": "DT_FLOAT"}, "frame_name": {"s": "U3RhdGVmdWxQYXJ0aXRpb25lZENhbGwvbW9kZWwvVXBDdW5ldDJ4L3doaWxl"}, "parallel_iterations": {"i": "10"}}}, {"name": "StatefulPartitionedCall/model/UpCunet2x/while/enter/_77", "op": "Enter", "input": ["StatefulPartitionedCall/model/UpCunet2x/MirrorPad", "^StatefulPartitionedCall/model/UpCunet2x/while/LoopControlInputs/_89"], "attr": {"is_constant": {"b": false}, "frame_name": {"s": "U3RhdGVmdWxQYXJ0aXRpb25lZENhbGwvbW9kZWwvVXBDdW5ldDJ4L3doaWxl"}, "T": {"type": "DT_FLOAT"}, "parallel_iterations": {"i": "10"}}}, {"name": "StatefulPartitionedCall/model/UpCunet2x/while/merge/_97", "op": "Merge", "input": ["StatefulPartitionedCall/model/UpCunet2x/while/enter/_72", "StatefulPartitionedCall/model/UpCunet2x/while/next_iteration/_142"], "attr": {"N": {"i": "2"}, "_has_manual_control_dependencies": {"b": true}, "T": {"type": "DT_VARIANT"}}}, {"name": "StatefulPartitionedCall/model/UpCunet2x/while/merge/_94", "op": "Merge", "input": ["StatefulPartitionedCall/model/UpCunet2x/while/enter/_69", "StatefulPartitionedCall/model/UpCunet2x/while/next_iteration/_139"], "attr": {"N": {"i": "2"}, "_has_manual_control_dependencies": {"b": true}, "T": {"type": "DT_INT32"}}}, {"name": "StatefulPartitionedCall/model/UpCunet2x/while/merge/_96", "op": "Merge", "input": ["StatefulPartitionedCall/model/UpCunet2x/while/enter/_71", "StatefulPartitionedCall/model/UpCunet2x/while/next_iteration/_141"], "attr": {"N": {"i": "2"}, "_has_manual_control_dependencies": {"b": true}, "T": {"type": "DT_VARIANT"}}}, {"name": "StatefulPartitionedCall/model/UpCunet2x/while/merge/_98", "op": "Merge", "input": ["StatefulPartitionedCall/model/UpCunet2x/while/enter/_73", "StatefulPartitionedCall/model/UpCunet2x/while/next_iteration/_143"], "attr": {"N": {"i": "2"}, "_has_manual_control_dependencies": {"b": true}, "T": {"type": "DT_INT32"}}}, {"name": "StatefulPartitionedCall/model/UpCunet2x/while/merge/_93", "op": "Merge", "input": ["StatefulPartitionedCall/model/UpCunet2x/while/enter/_68", "StatefulPartitionedCall/model/UpCunet2x/while/next_iteration/_138"], "attr": {"N": {"i": "2"}, "_has_manual_control_dependencies": {"b": true}, "T": {"type": "DT_INT32"}}}, {"name": "StatefulPartitionedCall/model/UpCunet2x/while/merge/_90", "op": "Merge", "input": ["StatefulPartitionedCall/model/UpCunet2x/while/enter/_65", "StatefulPartitionedCall/model/UpCunet2x/while/next_iteration/_135"], "attr": {"N": {"i": "2"}, "_has_manual_control_dependencies": {"b": true}, "T": {"type": "DT_INT32"}}}, {"name": "StatefulPartitionedCall/model/UpCunet2x/while/merge/_91", "op": "Merge", "input": ["StatefulPartitionedCall/model/UpCunet2x/while/enter/_66", "StatefulPartitionedCall/model/UpCunet2x/while/next_iteration/_136"], "attr": {"N": {"i": "2"}, "_has_manual_control_dependencies": {"b": true}, "T": {"type": "DT_INT32"}}}, {"name": "StatefulPartitionedCall/model/UpCunet2x/while/merge/_95", "op": "Merge", "input": ["StatefulPartitionedCall/model/UpCunet2x/while/enter/_70", "StatefulPartitionedCall/model/UpCunet2x/while/next_iteration/_140"], "attr": {"N": {"i": "2"}, "_has_manual_control_dependencies": {"b": true}, "T": {"type": "DT_FLOAT"}}}, {"name": "StatefulPartitionedCall/model/UpCunet2x/while/merge/_100", "op": "Merge", "input": ["StatefulPartitionedCall/model/UpCunet2x/while/enter/_75", "StatefulPartitionedCall/model/UpCunet2x/while/next_iteration/_145"], "attr": {"N": {"i": "2"}, "_has_manual_control_dependencies": {"b": true}, "T": {"type": "DT_INT32"}}}, {"name": "StatefulPartitionedCall/model/UpCunet2x/while/merge/_92", "op": "Merge", "input": ["StatefulPartitionedCall/model/UpCunet2x/while/enter/_67", "StatefulPartitionedCall/model/UpCunet2x/while/next_iteration/_137"], "attr": {"N": {"i": "2"}, "_has_manual_control_dependencies": {"b": true}, "T": {"type": "DT_INT32"}}}, {"name": "StatefulPartitionedCall/model/UpCunet2x/while/merge/_103", "op": "Merge", "input": ["StatefulPartitionedCall/model/UpCunet2x/while/enter/_88", "StatefulPartitionedCall/model/UpCunet2x/while/next_iteration/_148"], "attr": {"N": {"i": "2"}, "_has_manual_control_dependencies": {"b": true}, "T": {"type": "DT_INT32"}}}, {"name": "StatefulPartitionedCall/model/UpCunet2x/while/merge/_99", "op": "Merge", "input": ["StatefulPartitionedCall/model/UpCunet2x/while/enter/_74", "StatefulPartitionedCall/model/UpCunet2x/while/next_iteration/_144"], "attr": {"N": {"i": "2"}, "_has_manual_control_dependencies": {"b": true}, "T": {"type": "DT_INT32"}}}, {"name": "StatefulPartitionedCall/model/UpCunet2x/while/merge/_101", "op": "Merge", "input": ["StatefulPartitionedCall/model/UpCunet2x/while/enter/_76", "StatefulPartitionedCall/model/UpCunet2x/while/next_iteration/_146"], "attr": {"N": {"i": "2"}, "_has_manual_control_dependencies": {"b": true}, "T": {"type": "DT_INT32"}}}, {"name": "StatefulPartitionedCall/model/UpCunet2x/while/merge/_102", "op": "Merge", "input": ["StatefulPartitionedCall/model/UpCunet2x/while/enter/_77", "StatefulPartitionedCall/model/UpCunet2x/while/next_iteration/_147"], "attr": {"N": {"i": "2"}, "_has_manual_control_dependencies": {"b": true}, "T": {"type": "DT_FLOAT"}}}, {"name": "StatefulPartitionedCall/model/UpCunet2x/while/cond/_63/model/UpCunet2x/while/Less", "op": "Less", "input": ["StatefulPartitionedCall/model/UpCunet2x/while/merge/_92", "StatefulPartitionedCall/model/UpCunet2x/while/merge/_98", "^StatefulPartitionedCall/model/UpCunet2x/while/merge/_99", "^StatefulPartitionedCall/model/UpCunet2x/while/enter/_78", "^StatefulPartitionedCall/model/UpCunet2x/while/enter/_79", "^StatefulPartitionedCall/model/UpCunet2x/while/enter/_80", "^StatefulPartitionedCall/model/UpCunet2x/while/enter/_81", "^StatefulPartitionedCall/model/UpCunet2x/while/enter/_82", "^StatefulPartitionedCall/model/UpCunet2x/while/enter/_83", "^StatefulPartitionedCall/model/UpCunet2x/while/enter/_84", "^StatefulPartitionedCall/model/UpCunet2x/while/enter/_85", "^StatefulPartitionedCall/model/UpCunet2x/while/enter/_86", "^StatefulPartitionedCall/model/UpCunet2x/while/enter/_87", "^StatefulPartitionedCall/model/UpCunet2x/while/merge/_100", "^StatefulPartitionedCall/model/UpCunet2x/while/merge/_101", "^StatefulPartitionedCall/model/UpCunet2x/while/merge/_102", "^StatefulPartitionedCall/model/UpCunet2x/while/merge/_103", "^StatefulPartitionedCall/model/UpCunet2x/while/merge/_90", "^StatefulPartitionedCall/model/UpCunet2x/while/merge/_91", "^StatefulPartitionedCall/model/UpCunet2x/while/merge/_93", "^StatefulPartitionedCall/model/UpCunet2x/while/merge/_94", "^StatefulPartitionedCall/model/UpCunet2x/while/merge/_95", "^StatefulPartitionedCall/model/UpCunet2x/while/merge/_96", "^StatefulPartitionedCall/model/UpCunet2x/while/merge/_97"], "attr": {"T": {"type": "DT_INT32"}}}, {"name": "StatefulPartitionedCall/model/UpCunet2x/while/LoopCond/_104", "op": "LoopCond", "input": ["StatefulPartitionedCall/model/UpCunet2x/while/cond/_63/model/UpCunet2x/while/Less"]}, {"name": "StatefulPartitionedCall/model/UpCunet2x/while/StatefulPartitionedCall/model/UpCunet2x/Const_switch/_109", "op": "Switch", "input": ["StatefulPartitionedCall/model/UpCunet2x/while/merge/_94", "StatefulPartitionedCall/model/UpCunet2x/while/LoopCond/_104"], "attr": {"_has_manual_control_dependencies": {"b": true}, "T": {"type": "DT_INT32"}}}, {"name": "StatefulPartitionedCall/model/UpCunet2x/while/StatefulPartitionedCall/model/UpCunet2x/TensorArrayV2_1_switch/_112", "op": "Switch", "input": ["StatefulPartitionedCall/model/UpCunet2x/while/merge/_97", "StatefulPartitionedCall/model/UpCunet2x/while/LoopCond/_104"], "attr": {"_has_manual_control_dependencies": {"b": true}, "T": {"type": "DT_VARIANT"}}}, {"name": "StatefulPartitionedCall/model/UpCunet2x/while/StatefulPartitionedCall/model/UpCunet2x/TensorArrayV2_switch/_111", "op": "Switch", "input": ["StatefulPartitionedCall/model/UpCunet2x/while/merge/_96", "StatefulPartitionedCall/model/UpCunet2x/while/LoopCond/_104"], "attr": {"_has_manual_control_dependencies": {"b": true}, "T": {"type": "DT_VARIANT"}}}, {"name": "StatefulPartitionedCall/model/UpCunet2x/while/StatefulPartitionedCall/model/UpCunet2x/mul_7_switch/_113", "op": "Switch", "input": ["StatefulPartitionedCall/model/UpCunet2x/while/merge/_98", "StatefulPartitionedCall/model/UpCunet2x/while/LoopCond/_104"], "attr": {"_has_manual_control_dependencies": {"b": true}, "T": {"type": "DT_INT32"}}}, {"name": "StatefulPartitionedCall/model/UpCunet2x/while/StatefulPartitionedCall/model/UpCunet2x/strided_slice_4_switch/_108", "op": "Switch", "input": ["StatefulPartitionedCall/model/UpCunet2x/while/merge/_93", "StatefulPartitionedCall/model/UpCunet2x/while/LoopCond/_104"], "attr": {"_has_manual_control_dependencies": {"b": true}, "T": {"type": "DT_INT32"}}}, {"name": "StatefulPartitionedCall/model/UpCunet2x/while/StatefulPartitionedCall/model/UpCunet2x/while/loop_counter_switch/_105", "op": "Switch", "input": ["StatefulPartitionedCall/model/UpCunet2x/while/merge/_90", "StatefulPartitionedCall/model/UpCunet2x/while/LoopCond/_104"], "attr": {"T": {"type": "DT_INT32"}}}, {"name": "StatefulPartitionedCall/model/UpCunet2x/while/StatefulPartitionedCall/model/UpCunet2x/while/maximum_iterations_switch/_106", "op": "Switch", "input": ["StatefulPartitionedCall/model/UpCunet2x/while/merge/_91", "StatefulPartitionedCall/model/UpCunet2x/while/LoopCond/_104"], "attr": {"_has_manual_control_dependencies": {"b": true}, "T": {"type": "DT_INT32"}}}, {"name": "StatefulPartitionedCall/model/UpCunet2x/while/StatefulPartitionedCall/model/UpCunet2x/floordiv_4_switch/_115", "op": "Switch", "input": ["StatefulPartitionedCall/model/UpCunet2x/while/merge/_100", "StatefulPartitionedCall/model/UpCunet2x/while/LoopCond/_104"], "attr": {"_has_manual_control_dependencies": {"b": true}, "T": {"type": "DT_INT32"}}}, {"name": "StatefulPartitionedCall/model/UpCunet2x/while/StatefulPartitionedCall/model/UpCunet2x/range/delta_switch/_118", "op": "Switch", "input": ["StatefulPartitionedCall/model/UpCunet2x/while/merge/_103", "StatefulPartitionedCall/model/UpCunet2x/while/LoopCond/_104"], "attr": {"_has_manual_control_dependencies": {"b": true}, "T": {"type": "DT_INT32"}}}, {"name": "StatefulPartitionedCall/model/UpCunet2x/while/StatefulPartitionedCall/model/UpCunet2x/range/start_switch/_107", "op": "Switch", "input": ["StatefulPartitionedCall/model/UpCunet2x/while/merge/_92", "StatefulPartitionedCall/model/UpCunet2x/while/LoopCond/_104"], "attr": {"_has_manual_control_dependencies": {"b": true}, "T": {"type": "DT_INT32"}}}, {"name": "StatefulPartitionedCall/model/UpCunet2x/while/StatefulPartitionedCall/model/UpCunet2x/floordiv_9_switch/_114", "op": "Switch", "input": ["StatefulPartitionedCall/model/UpCunet2x/while/merge/_99", "StatefulPartitionedCall/model/UpCunet2x/while/LoopCond/_104"], "attr": {"_has_manual_control_dependencies": {"b": true}, "T": {"type": "DT_INT32"}}}, {"name": "StatefulPartitionedCall/model/UpCunet2x/while/StatefulPartitionedCall/model/UpCunet2x/floordiv_6_switch/_116", "op": "Switch", "input": ["StatefulPartitionedCall/model/UpCunet2x/while/merge/_101", "StatefulPartitionedCall/model/UpCunet2x/while/LoopCond/_104"], "attr": {"_has_manual_control_dependencies": {"b": true}, "T": {"type": "DT_INT32"}}}, {"name": "StatefulPartitionedCall/model/UpCunet2x/while/StatefulPartitionedCall/model/UpCunet2x/zeros_switch/_110", "op": "Switch", "input": ["StatefulPartitionedCall/model/UpCunet2x/while/merge/_95", "StatefulPartitionedCall/model/UpCunet2x/while/LoopCond/_104"], "attr": {"_has_manual_control_dependencies": {"b": true}, "T": {"type": "DT_FLOAT"}}}, {"name": "StatefulPartitionedCall/model/UpCunet2x/while/StatefulPartitionedCall/model/UpCunet2x/MirrorPad_switch/_117", "op": "Switch", "input": ["StatefulPartitionedCall/model/UpCunet2x/while/merge/_102", "StatefulPartitionedCall/model/UpCunet2x/while/LoopCond/_104"], "attr": {"_has_manual_control_dependencies": {"b": true}, "T": {"type": "DT_FLOAT"}}}, {"name": "StatefulPartitionedCall/model/UpCunet2x/while/exit/_124", "op": "Exit", "input": ["StatefulPartitionedCall/model/UpCunet2x/while/StatefulPartitionedCall/model/UpCunet2x/Const_switch/_109"], "attr": {"_has_manual_control_dependencies": {"b": true}, "T": {"type": "DT_INT32"}}}, {"name": "StatefulPartitionedCall/model/UpCunet2x/while/exit/_127", "op": "Exit", "input": ["StatefulPartitionedCall/model/UpCunet2x/while/StatefulPartitionedCall/model/UpCunet2x/TensorArrayV2_1_switch/_112"], "attr": {"_has_manual_control_dependencies": {"b": true}, "T": {"type": "DT_VARIANT"}}}, {"name": "StatefulPartitionedCall/model/UpCunet2x/while/exit/_126", "op": "Exit", "input": ["StatefulPartitionedCall/model/UpCunet2x/while/StatefulPartitionedCall/model/UpCunet2x/TensorArrayV2_switch/_111"], "attr": {"_has_manual_control_dependencies": {"b": true}, "T": {"type": "DT_VARIANT"}}}, {"name": "StatefulPartitionedCall/model/UpCunet2x/while/exit/_128", "op": "Exit", "input": ["StatefulPartitionedCall/model/UpCunet2x/while/StatefulPartitionedCall/model/UpCunet2x/mul_7_switch/_113"], "attr": {"_has_manual_control_dependencies": {"b": true}, "T": {"type": "DT_INT32"}}}, {"name": "StatefulPartitionedCall/model/UpCunet2x/while/exit/_123", "op": "Exit", "input": ["StatefulPartitionedCall/model/UpCunet2x/while/StatefulPartitionedCall/model/UpCunet2x/strided_slice_4_switch/_108"], "attr": {"_has_manual_control_dependencies": {"b": true}, "T": {"type": "DT_INT32"}}}, {"name": "StatefulPartitionedCall/model/UpCunet2x/while/exit/_120", "op": "Exit", "input": ["StatefulPartitionedCall/model/UpCunet2x/while/StatefulPartitionedCall/model/UpCunet2x/while/loop_counter_switch/_105"], "attr": {"_has_manual_control_dependencies": {"b": true}, "T": {"type": "DT_INT32"}}}, {"name": "StatefulPartitionedCall/model/UpCunet2x/while/loop_body_control/_119", "op": "Identity", "input": ["StatefulPartitionedCall/model/UpCunet2x/while/StatefulPartitionedCall/model/UpCunet2x/while/loop_counter_switch/_105:1"], "attr": {"_has_manual_control_dependencies": {"b": true}, "T": {"type": "DT_INT32"}}}, {"name": "StatefulPartitionedCall/model/UpCunet2x/while/exit/_121", "op": "Exit", "input": ["StatefulPartitionedCall/model/UpCunet2x/while/StatefulPartitionedCall/model/UpCunet2x/while/maximum_iterations_switch/_106"], "attr": {"_has_manual_control_dependencies": {"b": true}, "T": {"type": "DT_INT32"}}}, {"name": "StatefulPartitionedCall/model/UpCunet2x/while/exit/_130", "op": "Exit", "input": ["StatefulPartitionedCall/model/UpCunet2x/while/StatefulPartitionedCall/model/UpCunet2x/floordiv_4_switch/_115"], "attr": {"_has_manual_control_dependencies": {"b": true}, "T": {"type": "DT_INT32"}}}, {"name": "StatefulPartitionedCall/model/UpCunet2x/while/exit/_133", "op": "Exit", "input": ["StatefulPartitionedCall/model/UpCunet2x/while/StatefulPartitionedCall/model/UpCunet2x/range/delta_switch/_118"], "attr": {"_has_manual_control_dependencies": {"b": true}, "T": {"type": "DT_INT32"}}}, {"name": "StatefulPartitionedCall/model/UpCunet2x/while/exit/_122", "op": "Exit", "input": ["StatefulPartitionedCall/model/UpCunet2x/while/StatefulPartitionedCall/model/UpCunet2x/range/start_switch/_107"], "attr": {"_has_manual_control_dependencies": {"b": true}, "T": {"type": "DT_INT32"}}}, {"name": "StatefulPartitionedCall/model/UpCunet2x/while/exit/_129", "op": "Exit", "input": ["StatefulPartitionedCall/model/UpCunet2x/while/StatefulPartitionedCall/model/UpCunet2x/floordiv_9_switch/_114"], "attr": {"_has_manual_control_dependencies": {"b": true}, "T": {"type": "DT_INT32"}}}, {"name": "StatefulPartitionedCall/model/UpCunet2x/while/exit/_131", "op": "Exit", "input": ["StatefulPartitionedCall/model/UpCunet2x/while/StatefulPartitionedCall/model/UpCunet2x/floordiv_6_switch/_116"], "attr": {"_has_manual_control_dependencies": {"b": true}, "T": {"type": "DT_INT32"}}}, {"name": "StatefulPartitionedCall/model/UpCunet2x/while/exit/_125", "op": "Exit", "input": ["StatefulPartitionedCall/model/UpCunet2x/while/StatefulPartitionedCall/model/UpCunet2x/zeros_switch/_110"], "attr": {"_has_manual_control_dependencies": {"b": true}, "T": {"type": "DT_FLOAT"}}}, {"name": "StatefulPartitionedCall/model/UpCunet2x/while/exit/_132", "op": "Exit", "input": ["StatefulPartitionedCall/model/UpCunet2x/while/StatefulPartitionedCall/model/UpCunet2x/MirrorPad_switch/_117"], "attr": {"_has_manual_control_dependencies": {"b": true}, "T": {"type": "DT_FLOAT"}}}, {"name": "StatefulPartitionedCall/model/UpCunet2x/Cast_8", "op": "Cast", "input": ["StatefulPartitionedCall/model/UpCunet2x/while/exit/_124"], "attr": {"SrcT": {"type": "DT_INT32"}, "DstT": {"type": "DT_FLOAT"}, "Truncate": {"b": false}}}, {"name": "StatefulPartitionedCall/model/UpCunet2x/Cast_6", "op": "Cast", "input": ["StatefulPartitionedCall/model/UpCunet2x/while/exit/_124"], "attr": {"SrcT": {"type": "DT_INT32"}, "DstT": {"type": "DT_FLOAT"}, "Truncate": {"b": false}}}, {"name": "StatefulPartitionedCall/model/UpCunet2x/Cast_4", "op": "Cast", "input": ["StatefulPartitionedCall/model/UpCunet2x/while/exit/_124"], "attr": {"SrcT": {"type": "DT_INT32"}, "DstT": {"type": "DT_FLOAT"}, "Truncate": {"b": false}}}, {"name": "StatefulPartitionedCall/model/UpCunet2x/Cast_2", "op": "Cast", "input": ["StatefulPartitionedCall/model/UpCunet2x/while/exit/_124"], "attr": {"SrcT": {"type": "DT_INT32"}, "DstT": {"type": "DT_FLOAT"}, "Truncate": {"b": false}}}, {"name": "StatefulPartitionedCall/model/UpCunet2x/zeros_3/packed", "op": "Pack", "input": ["StatefulPartitionedCall/model/UpCunet2x/while/exit/_123", "StatefulPartitionedCall/model/UpCunet2x/zeros_3/packed/1", "StatefulPartitionedCall/model/UpCunet2x/zeros_3/packed/2", "StatefulPartitionedCall/model/UpCunet2x/zeros_3/packed/3"], "attr": {"N": {"i": "4"}, "axis": {"i": "0"}, "T": {"type": "DT_INT32"}}}, {"name": "StatefulPartitionedCall/model/UpCunet2x/zeros_2/packed", "op": "Pack", "input": ["StatefulPartitionedCall/model/UpCunet2x/while/exit/_123", "StatefulPartitionedCall/model/UpCunet2x/zeros_2/packed/1", "StatefulPartitionedCall/model/UpCunet2x/zeros_2/packed/2", "StatefulPartitionedCall/model/UpCunet2x/zeros_2/packed/3"], "attr": {"N": {"i": "4"}, "axis": {"i": "0"}, "T": {"type": "DT_INT32"}}}, {"name": "StatefulPartitionedCall/model/UpCunet2x/zeros_1/packed", "op": "Pack", "input": ["StatefulPartitionedCall/model/UpCunet2x/while/exit/_123", "StatefulPartitionedCall/model/UpCunet2x/zeros_1/packed/1", "StatefulPartitionedCall/model/UpCunet2x/zeros_1/packed/2", "StatefulPartitionedCall/model/UpCunet2x/zeros_1/packed/3"], "attr": {"N": {"i": "4"}, "axis": {"i": "0"}, "T": {"type": "DT_INT32"}}}, {"name": "Func/StatefulPartitionedCall/model/UpCunet2x/while/body/_64/input_control_node/_464", "op": "NoOp", "input": ["^StatefulPartitionedCall/model/UpCunet2x/while/StatefulPartitionedCall/model/UpCunet2x/Const_switch/_109", "^StatefulPartitionedCall/model/UpCunet2x/while/StatefulPartitionedCall/model/UpCunet2x/MirrorPad_switch/_117", "^StatefulPartitionedCall/model/UpCunet2x/while/StatefulPartitionedCall/model/UpCunet2x/TensorArrayV2_1_switch/_112", "^StatefulPartitionedCall/model/UpCunet2x/while/StatefulPartitionedCall/model/UpCunet2x/TensorArrayV2_switch/_111", "^StatefulPartitionedCall/model/UpCunet2x/while/StatefulPartitionedCall/model/UpCunet2x/floordiv_4_switch/_115", "^StatefulPartitionedCall/model/UpCunet2x/while/StatefulPartitionedCall/model/UpCunet2x/floordiv_6_switch/_116", "^StatefulPartitionedCall/model/UpCunet2x/while/StatefulPartitionedCall/model/UpCunet2x/floordiv_9_switch/_114", "^StatefulPartitionedCall/model/UpCunet2x/while/StatefulPartitionedCall/model/UpCunet2x/mul_7_switch/_113", "^StatefulPartitionedCall/model/UpCunet2x/while/StatefulPartitionedCall/model/UpCunet2x/range/delta_switch/_118", "^StatefulPartitionedCall/model/UpCunet2x/while/StatefulPartitionedCall/model/UpCunet2x/range/start_switch/_107", "^StatefulPartitionedCall/model/UpCunet2x/while/StatefulPartitionedCall/model/UpCunet2x/strided_slice_4_switch/_108", "^StatefulPartitionedCall/model/UpCunet2x/while/loop_body_control/_119", "^StatefulPartitionedCall/model/UpCunet2x/while/StatefulPartitionedCall/model/UpCunet2x/while/maximum_iterations_switch/_106", "^StatefulPartitionedCall/model/UpCunet2x/while/StatefulPartitionedCall/model/UpCunet2x/zeros_switch/_110", "^StatefulPartitionedCall/model/UpCunet2x/while/enter/_78", "^StatefulPartitionedCall/model/UpCunet2x/while/enter/_79", "^StatefulPartitionedCall/model/UpCunet2x/while/enter/_80", "^StatefulPartitionedCall/model/UpCunet2x/while/enter/_81", "^StatefulPartitionedCall/model/UpCunet2x/while/enter/_82", "^StatefulPartitionedCall/model/UpCunet2x/while/enter/_83", "^StatefulPartitionedCall/model/UpCunet2x/while/enter/_84", "^StatefulPartitionedCall/model/UpCunet2x/while/enter/_85", "^StatefulPartitionedCall/model/UpCunet2x/while/enter/_86", "^StatefulPartitionedCall/model/UpCunet2x/while/enter/_87"], "attr": {"_has_manual_control_dependencies": {"b": true}}}, {"name": "StatefulPartitionedCall/model/UpCunet2x/truediv_1", "op": "RealDiv", "input": ["StatefulPartitionedCall/model/UpCunet2x/while/exit/_125", "StatefulPartitionedCall/model/UpCunet2x/Cast_2"], "attr": {"_has_manual_control_dependencies": {"b": true}, "T": {"type": "DT_FLOAT"}}}, {"name": "StatefulPartitionedCall/model/UpCunet2x/zeros_3", "op": "Fill", "input": ["StatefulPartitionedCall/model/UpCunet2x/zeros_3/packed", "StatefulPartitionedCall/model/UpCunet2x/zeros_3/Const"], "attr": {"_has_manual_control_dependencies": {"b": true}, "T": {"type": "DT_FLOAT"}, "index_type": {"type": "DT_INT32"}}}, {"name": "StatefulPartitionedCall/model/UpCunet2x/zeros_2", "op": "Fill", "input": ["StatefulPartitionedCall/model/UpCunet2x/zeros_2/packed", "StatefulPartitionedCall/model/UpCunet2x/zeros_2/Const"], "attr": {"_has_manual_control_dependencies": {"b": true}, "T": {"type": "DT_FLOAT"}, "index_type": {"type": "DT_INT32"}}}, {"name": "StatefulPartitionedCall/model/UpCunet2x/zeros_1", "op": "Fill", "input": ["StatefulPartitionedCall/model/UpCunet2x/zeros_1/packed", "StatefulPartitionedCall/model/UpCunet2x/zeros_1/Const"], "attr": {"T": {"type": "DT_FLOAT"}, "index_type": {"type": "DT_INT32"}}}, {"name": "StatefulPartitionedCall/model/UpCunet2x/while/body/_64/model/UpCunet2x/while/add_5/y", "op": "Const", "input": ["^Func/StatefulPartitionedCall/model/UpCunet2x/while/body/_64/input_control_node/_464"], "attr": {"value": {"tensor": {"dtype": "DT_INT32", "tensorShape": {}}}, "dtype": {"type": "DT_INT32"}}}, {"name": "StatefulPartitionedCall/model/UpCunet2x/while/body/_64/model/UpCunet2x/while/strided_slice_5/stack", "op": "Const", "input": ["^Func/StatefulPartitionedCall/model/UpCunet2x/while/body/_64/input_control_node/_464"], "attr": {"value": {"tensor": {"dtype": "DT_INT32", "tensorShape": {"dim": [{"size": "4"}]}}}, "dtype": {"type": "DT_INT32"}}}, {"name": "StatefulPartitionedCall/model/UpCunet2x/while/body/_64/model/UpCunet2x/while/strided_slice_5/stack_1", "op": "Const", "input": ["^Func/StatefulPartitionedCall/model/UpCunet2x/while/body/_64/input_control_node/_464"], "attr": {"value": {"tensor": {"dtype": "DT_INT32", "tensorShape": {"dim": [{"size": "4"}]}}}, "dtype": {"type": "DT_INT32"}}}, {"name": "StatefulPartitionedCall/model/UpCunet2x/while/body/_64/model/UpCunet2x/while/strided_slice_5/stack_2", "op": "Const", "input": ["^Func/StatefulPartitionedCall/model/UpCunet2x/while/body/_64/input_control_node/_464"], "attr": {"value": {"tensor": {"dtype": "DT_INT32", "tensorShape": {"dim": [{"size": "4"}]}}}, "dtype": {"type": "DT_INT32"}}}, {"name": "StatefulPartitionedCall/model/UpCunet2x/while/body/_64/model/UpCunet2x/while/strided_slice_1/stack", "op": "Const", "input": ["^Func/StatefulPartitionedCall/model/UpCunet2x/while/body/_64/input_control_node/_464"], "attr": {"value": {"tensor": {"dtype": "DT_INT32", "tensorShape": {"dim": [{"size": "1"}]}}}, "dtype": {"type": "DT_INT32"}}}, {"name": "StatefulPartitionedCall/model/UpCunet2x/while/body/_64/model/UpCunet2x/while/strided_slice_1/stack_1", "op": "Const", "input": ["^Func/StatefulPartitionedCall/model/UpCunet2x/while/body/_64/input_control_node/_464"], "attr": {"value": {"tensor": {"dtype": "DT_INT32", "tensorShape": {"dim": [{"size": "1"}]}}}, "dtype": {"type": "DT_INT32"}}}, {"name": "StatefulPartitionedCall/model/UpCunet2x/while/body/_64/model/UpCunet2x/while/strided_slice_1/stack_2", "op": "Const", "input": ["^Func/StatefulPartitionedCall/model/UpCunet2x/while/body/_64/input_control_node/_464"], "attr": {"value": {"tensor": {"dtype": "DT_INT32", "tensorShape": {"dim": [{"size": "1"}]}}}, "dtype": {"type": "DT_INT32"}}}, {"name": "StatefulPartitionedCall/model/UpCunet2x/while/body/_64/model/UpCunet2x/while/add_7/y", "op": "Const", "input": ["^Func/StatefulPartitionedCall/model/UpCunet2x/while/body/_64/input_control_node/_464"], "attr": {"value": {"tensor": {"dtype": "DT_INT32", "tensorShape": {}}}, "dtype": {"type": "DT_INT32"}}}, {"name": "StatefulPartitionedCall/model/UpCunet2x/while/body/_64/model/UpCunet2x/while/strided_slice/stack/0", "op": "Const", "input": ["^Func/StatefulPartitionedCall/model/UpCunet2x/while/body/_64/input_control_node/_464"], "attr": {"value": {"tensor": {"dtype": "DT_INT32", "tensorShape": {}}}, "dtype": {"type": "DT_INT32"}}}, {"name": "StatefulPartitionedCall/model/UpCunet2x/while/body/_64/model/UpCunet2x/while/strided_slice/stack/3", "op": "Const", "input": ["^Func/StatefulPartitionedCall/model/UpCunet2x/while/body/_64/input_control_node/_464"], "attr": {"value": {"tensor": {"dtype": "DT_INT32", "tensorShape": {}}}, "dtype": {"type": "DT_INT32"}}}, {"name": "StatefulPartitionedCall/model/UpCunet2x/while/body/_64/model/UpCunet2x/while/strided_slice/stack_1/0", "op": "Const", "input": ["^Func/StatefulPartitionedCall/model/UpCunet2x/while/body/_64/input_control_node/_464"], "attr": {"value": {"tensor": {"dtype": "DT_INT32", "tensorShape": {}}}, "dtype": {"type": "DT_INT32"}}}, {"name": "StatefulPartitionedCall/model/UpCunet2x/while/body/_64/model/UpCunet2x/while/add/y", "op": "Const", "input": ["^Func/StatefulPartitionedCall/model/UpCunet2x/while/body/_64/input_control_node/_464"], "attr": {"value": {"tensor": {"dtype": "DT_INT32", "tensorShape": {}}}, "dtype": {"type": "DT_INT32"}}}, {"name": "Func/StatefulPartitionedCall/model/UpCunet2x/while/body/_64/input/_475", "op": "Identity", "input": ["StatefulPartitionedCall/model/UpCunet2x/while/StatefulPartitionedCall/model/UpCunet2x/floordiv_4_switch/_115:1", "^Func/StatefulPartitionedCall/model/UpCunet2x/while/body/_64/input_control_node/_464"], "attr": {"T": {"type": "DT_INT32"}}}, {"name": "StatefulPartitionedCall/model/UpCunet2x/while/body/_64/model/UpCunet2x/while/add_1/y", "op": "Const", "input": ["^Func/StatefulPartitionedCall/model/UpCunet2x/while/body/_64/input_control_node/_464"], "attr": {"value": {"tensor": {"dtype": "DT_INT32", "tensorShape": {}}}, "dtype": {"type": "DT_INT32"}}}, {"name": "Func/StatefulPartitionedCall/model/UpCunet2x/while/body/_64/input/_467", "op": "Identity", "input": ["StatefulPartitionedCall/model/UpCunet2x/while/StatefulPartitionedCall/model/UpCunet2x/range/start_switch/_107:1", "^Func/StatefulPartitionedCall/model/UpCunet2x/while/body/_64/input_control_node/_464"], "attr": {"T": {"type": "DT_INT32"}}}, {"name": "Func/StatefulPartitionedCall/model/UpCunet2x/while/body/_64/input/_474", "op": "Identity", "input": ["StatefulPartitionedCall/model/UpCunet2x/while/StatefulPartitionedCall/model/UpCunet2x/floordiv_9_switch/_114:1", "^Func/StatefulPartitionedCall/model/UpCunet2x/while/body/_64/input_control_node/_464"], "attr": {"T": {"type": "DT_INT32"}}}, {"name": "StatefulPartitionedCall/model/UpCunet2x/while/body/_64/model/UpCunet2x/while/add_2/y", "op": "Const", "input": ["^Func/StatefulPartitionedCall/model/UpCunet2x/while/body/_64/input_control_node/_464"], "attr": {"value": {"tensor": {"dtype": "DT_INT32", "tensorShape": {}}}, "dtype": {"type": "DT_INT32"}}}, {"name": "Func/StatefulPartitionedCall/model/UpCunet2x/while/body/_64/input/_476", "op": "Identity", "input": ["StatefulPartitionedCall/model/UpCunet2x/while/StatefulPartitionedCall/model/UpCunet2x/floordiv_6_switch/_116:1", "^Func/StatefulPartitionedCall/model/UpCunet2x/while/body/_64/input_control_node/_464"], "attr": {"T": {"type": "DT_INT32"}}}, {"name": "StatefulPartitionedCall/model/UpCunet2x/while/body/_64/model/UpCunet2x/while/add_3/y", "op": "Const", "input": ["^Func/StatefulPartitionedCall/model/UpCunet2x/while/body/_64/input_control_node/_464"], "attr": {"value": {"tensor": {"dtype": "DT_INT32", "tensorShape": {}}}, "dtype": {"type": "DT_INT32"}}}, {"name": "StatefulPartitionedCall/model/UpCunet2x/while/body/_64/model/UpCunet2x/while/strided_slice/stack_1/3", "op": "Const", "input": ["^Func/StatefulPartitionedCall/model/UpCunet2x/while/body/_64/input_control_node/_464"], "attr": {"value": {"tensor": {"dtype": "DT_INT32", "tensorShape": {}}}, "dtype": {"type": "DT_INT32"}}}, {"name": "StatefulPartitionedCall/model/UpCunet2x/while/body/_64/model/UpCunet2x/while/strided_slice/stack_2", "op": "Const", "input": ["^Func/StatefulPartitionedCall/model/UpCunet2x/while/body/_64/input_control_node/_464"], "attr": {"value": {"tensor": {"dtype": "DT_INT32", "tensorShape": {"dim": [{"size": "4"}]}}}, "dtype": {"type": "DT_INT32"}}}, {"name": "StatefulPartitionedCall/model/UpCunet2x/while/body/_64/model/UpCunet2x/while/Mean/reduction_indices", "op": "Const", "input": ["^Func/StatefulPartitionedCall/model/UpCunet2x/while/body/_64/input_control_node/_464"], "attr": {"value": {"tensor": {"dtype": "DT_INT32", "tensorShape": {"dim": [{"size": "2"}]}}}, "dtype": {"type": "DT_INT32"}}}, {"name": "StatefulPartitionedCall/model/UpCunet2x/while/body/_64/model/UpCunet2x/while/UpCunet2x.unet1.conv1/sequential/UpCunet2x.unet1.conv1.conv.0/BiasAdd/ReadVariableOp", "op": "Const", "input": ["^StatefulPartitionedCall/model/UpCunet2x/while/enter/_79", "^Func/StatefulPartitionedCall/model/UpCunet2x/while/body/_64/input_control_node/_464"], "attr": {"value": {"tensor": {"dtype": "DT_FLOAT", "tensorShape": {"dim": [{"size": "32"}]}}}, "dtype": {"type": "DT_FLOAT"}}}, {"name": "StatefulPartitionedCall/model/UpCunet2x/while/body/_64/model/UpCunet2x/while/UpCunet2x.unet1.conv1/sequential/UpCunet2x.unet1.conv1.conv.0/Conv2D/ReadVariableOp", "op": "Const", "input": ["^StatefulPartitionedCall/model/UpCunet2x/while/enter/_78", "^Func/StatefulPartitionedCall/model/UpCunet2x/while/body/_64/input_control_node/_464"], "attr": {"value": {"tensor": {"dtype": "DT_FLOAT", "tensorShape": {"dim": [{"size": "3"}, {"size": "3"}, {"size": "3"}, {"size": "32"}]}}}, "dtype": {"type": "DT_FLOAT"}}}, {"name": "StatefulPartitionedCall/model/UpCunet2x/while/body/_64/model/UpCunet2x/while/UpCunet2x.unet1.conv1/sequential/UpCunet2x.unet1.conv1.conv.2/BiasAdd/ReadVariableOp", "op": "Const", "input": ["^StatefulPartitionedCall/model/UpCunet2x/while/enter/_81", "^Func/StatefulPartitionedCall/model/UpCunet2x/while/body/_64/input_control_node/_464"], "attr": {"value": {"tensor": {"dtype": "DT_FLOAT", "tensorShape": {"dim": [{"size": "64"}]}}}, "dtype": {"type": "DT_FLOAT"}}}, {"name": "StatefulPartitionedCall/model/UpCunet2x/while/body/_64/model/UpCunet2x/while/UpCunet2x.unet1.conv1/sequential/UpCunet2x.unet1.conv1.conv.2/Conv2D/ReadVariableOp", "op": "Const", "input": ["^StatefulPartitionedCall/model/UpCunet2x/while/enter/_80", "^Func/StatefulPartitionedCall/model/UpCunet2x/while/body/_64/input_control_node/_464"], "attr": {"value": {"tensor": {"dtype": "DT_FLOAT", "tensorShape": {"dim": [{"size": "3"}, {"size": "3"}, {"size": "32"}, {"size": "64"}]}}}, "dtype": {"type": "DT_FLOAT"}}}, {"name": "StatefulPartitionedCall/model/UpCunet2x/while/body/_64/model/UpCunet2x/while/UpCunet2x.unet1.conv1_down/BiasAdd/ReadVariableOp", "op": "Const", "input": ["^StatefulPartitionedCall/model/UpCunet2x/while/enter/_83", "^Func/StatefulPartitionedCall/model/UpCunet2x/while/body/_64/input_control_node/_464"], "attr": {"value": {"tensor": {"dtype": "DT_FLOAT", "tensorShape": {"dim": [{"size": "64"}]}}}, "dtype": {"type": "DT_FLOAT"}}}, {"name": "StatefulPartitionedCall/model/UpCunet2x/while/body/_64/model/UpCunet2x/while/UpCunet2x.unet1.conv1_down/Conv2D/ReadVariableOp", "op": "Const", "input": ["^StatefulPartitionedCall/model/UpCunet2x/while/enter/_82", "^Func/StatefulPartitionedCall/model/UpCunet2x/while/body/_64/input_control_node/_464"], "attr": {"value": {"tensor": {"dtype": "DT_FLOAT", "tensorShape": {"dim": [{"size": "2"}, {"size": "2"}, {"size": "64"}, {"size": "64"}]}}}, "dtype": {"type": "DT_FLOAT"}}}, {"name": "StatefulPartitionedCall/model/UpCunet2x/while/body/_64/model/UpCunet2x/while/sequential_1/unet.conv2.conv.0/BiasAdd/ReadVariableOp", "op": "Const", "input": ["^StatefulPartitionedCall/model/UpCunet2x/while/enter/_85", "^Func/StatefulPartitionedCall/model/UpCunet2x/while/body/_64/input_control_node/_464"], "attr": {"value": {"tensor": {"dtype": "DT_FLOAT", "tensorShape": {"dim": [{"size": "128"}]}}}, "dtype": {"type": "DT_FLOAT"}}}, {"name": "StatefulPartitionedCall/model/UpCunet2x/while/body/_64/model/UpCunet2x/while/sequential_1/unet.conv2.conv.0/Conv2D/ReadVariableOp", "op": "Const", "input": ["^StatefulPartitionedCall/model/UpCunet2x/while/enter/_84", "^Func/StatefulPartitionedCall/model/UpCunet2x/while/body/_64/input_control_node/_464"], "attr": {"value": {"tensor": {"dtype": "DT_FLOAT", "tensorShape": {"dim": [{"size": "3"}, {"size": "3"}, {"size": "64"}, {"size": "128"}]}}}, "dtype": {"type": "DT_FLOAT"}}}, {"name": "StatefulPartitionedCall/model/UpCunet2x/while/body/_64/model/UpCunet2x/while/sequential_1/unet.conv2.conv.2/BiasAdd/ReadVariableOp", "op": "Const", "input": ["^StatefulPartitionedCall/model/UpCunet2x/while/enter/_87", "^Func/StatefulPartitionedCall/model/UpCunet2x/while/body/_64/input_control_node/_464"], "attr": {"value": {"tensor": {"dtype": "DT_FLOAT", "tensorShape": {"dim": [{"size": "64"}]}}}, "dtype": {"type": "DT_FLOAT"}}}, {"name": "StatefulPartitionedCall/model/UpCunet2x/while/body/_64/model/UpCunet2x/while/sequential_1/unet.conv2.conv.2/Conv2D/ReadVariableOp", "op": "Const", "input": ["^StatefulPartitionedCall/model/UpCunet2x/while/enter/_86", "^Func/StatefulPartitionedCall/model/UpCunet2x/while/body/_64/input_control_node/_464"], "attr": {"value": {"tensor": {"dtype": "DT_FLOAT", "tensorShape": {"dim": [{"size": "3"}, {"size": "3"}, {"size": "128"}, {"size": "64"}]}}}, "dtype": {"type": "DT_FLOAT"}}}, {"name": "StatefulPartitionedCall/model/UpCunet2x/while_1/LoopControlInputs/_181", "op": "NoOp", "input": ["^StatefulPartitionedCall/model/UpCunet2x/truediv_1", "^StatefulPartitionedCall/model/UpCunet2x/while/exit/_126", "^StatefulPartitionedCall/model/UpCunet2x/TensorArrayV2_2", "^StatefulPartitionedCall/model/UpCunet2x/mul_8", "^StatefulPartitionedCall/model/UpCunet2x/while/exit/_127", "^StatefulPartitionedCall/model/UpCunet2x/zeros_1"], "attr": {"_has_manual_control_dependencies": {"b": true}}}, {"name": "StatefulPartitionedCall/model/UpCunet2x/while/body/_64/model/UpCunet2x/while/add_5", "op": "AddV2", "input": ["StatefulPartitionedCall/model/UpCunet2x/while/StatefulPartitionedCall/model/UpCunet2x/Const_switch/_109:1", "StatefulPartitionedCall/model/UpCunet2x/while/body/_64/model/UpCunet2x/while/add_5/y"], "attr": {"T": {"type": "DT_INT32"}}}, {"name": "StatefulPartitionedCall/model/UpCunet2x/while/body/_64/model/UpCunet2x/while/add_7", "op": "AddV2", "input": ["StatefulPartitionedCall/model/UpCunet2x/while/StatefulPartitionedCall/model/UpCunet2x/while/loop_counter_switch/_105:1", "StatefulPartitionedCall/model/UpCunet2x/while/body/_64/model/UpCunet2x/while/add_7/y"], "attr": {"T": {"type": "DT_INT32"}}}, {"name": "StatefulPartitionedCall/model/UpCunet2x/while/body/_64/model/UpCunet2x/while/add_6", "op": "AddV2", "input": ["Func/StatefulPartitionedCall/model/UpCunet2x/while/body/_64/input/_467", "StatefulPartitionedCall/model/UpCunet2x/while/StatefulPartitionedCall/model/UpCunet2x/range/delta_switch/_118:1"], "attr": {"T": {"type": "DT_INT32"}}}, {"name": "StatefulPartitionedCall/model/UpCunet2x/while/body/_64/model/UpCunet2x/while/floordiv", "op": "FloorDiv", "input": ["Func/StatefulPartitionedCall/model/UpCunet2x/while/body/_64/input/_467", "Func/StatefulPartitionedCall/model/UpCunet2x/while/body/_64/input/_474"], "attr": {"T": {"type": "DT_INT32"}}}, {"name": "StatefulPartitionedCall/model/UpCunet2x/while/body/_64/model/UpCunet2x/while/floordiv_1", "op": "FloorDiv", "input": ["Func/StatefulPartitionedCall/model/UpCunet2x/while/body/_64/input/_467", "Func/StatefulPartitionedCall/model/UpCunet2x/while/body/_64/input/_474"], "attr": {"T": {"type": "DT_INT32"}}}, {"name": "StatefulPartitionedCall/model/UpCunet2x/while/body/_64/model/UpCunet2x/while/mod", "op": "FloorMod", "input": ["Func/StatefulPartitionedCall/model/UpCunet2x/while/body/_64/input/_467", "Func/StatefulPartitionedCall/model/UpCunet2x/while/body/_64/input/_474"], "attr": {"T": {"type": "DT_INT32"}}}, {"name": "Func/StatefulPartitionedCall/model/UpCunet2x/while/body/_64/output_control_node/_513", "op": "NoOp", "input": ["^StatefulPartitionedCall/model/UpCunet2x/while/body/_64/model/UpCunet2x/while/UpCunet2x.unet1.conv1/sequential/UpCunet2x.unet1.conv1.conv.0/BiasAdd/ReadVariableOp", "^StatefulPartitionedCall/model/UpCunet2x/while/body/_64/model/UpCunet2x/while/UpCunet2x.unet1.conv1/sequential/UpCunet2x.unet1.conv1.conv.0/Conv2D/ReadVariableOp", "^StatefulPartitionedCall/model/UpCunet2x/while/body/_64/model/UpCunet2x/while/UpCunet2x.unet1.conv1/sequential/UpCunet2x.unet1.conv1.conv.2/BiasAdd/ReadVariableOp", "^StatefulPartitionedCall/model/UpCunet2x/while/body/_64/model/UpCunet2x/while/UpCunet2x.unet1.conv1/sequential/UpCunet2x.unet1.conv1.conv.2/Conv2D/ReadVariableOp", "^StatefulPartitionedCall/model/UpCunet2x/while/body/_64/model/UpCunet2x/while/UpCunet2x.unet1.conv1_down/BiasAdd/ReadVariableOp", "^StatefulPartitionedCall/model/UpCunet2x/while/body/_64/model/UpCunet2x/while/UpCunet2x.unet1.conv1_down/Conv2D/ReadVariableOp", "^StatefulPartitionedCall/model/UpCunet2x/while/body/_64/model/UpCunet2x/while/sequential_1/unet.conv2.conv.0/BiasAdd/ReadVariableOp", "^StatefulPartitionedCall/model/UpCunet2x/while/body/_64/model/UpCunet2x/while/sequential_1/unet.conv2.conv.0/Conv2D/ReadVariableOp", "^StatefulPartitionedCall/model/UpCunet2x/while/body/_64/model/UpCunet2x/while/sequential_1/unet.conv2.conv.2/BiasAdd/ReadVariableOp", "^StatefulPartitionedCall/model/UpCunet2x/while/body/_64/model/UpCunet2x/while/sequential_1/unet.conv2.conv.2/Conv2D/ReadVariableOp"], "attr": {"_has_manual_control_dependencies": {"b": true}}}, {"name": "StatefulPartitionedCall/model/UpCunet2x/while/body/_64/model/UpCunet2x/while/NoOp", "op": "NoOp", "input": ["^StatefulPartitionedCall/model/UpCunet2x/while/body/_64/model/UpCunet2x/while/UpCunet2x.unet1.conv1/sequential/UpCunet2x.unet1.conv1.conv.0/BiasAdd/ReadVariableOp", "^StatefulPartitionedCall/model/UpCunet2x/while/body/_64/model/UpCunet2x/while/UpCunet2x.unet1.conv1/sequential/UpCunet2x.unet1.conv1.conv.0/Conv2D/ReadVariableOp", "^StatefulPartitionedCall/model/UpCunet2x/while/body/_64/model/UpCunet2x/while/UpCunet2x.unet1.conv1/sequential/UpCunet2x.unet1.conv1.conv.2/BiasAdd/ReadVariableOp", "^StatefulPartitionedCall/model/UpCunet2x/while/body/_64/model/UpCunet2x/while/UpCunet2x.unet1.conv1/sequential/UpCunet2x.unet1.conv1.conv.2/Conv2D/ReadVariableOp", "^StatefulPartitionedCall/model/UpCunet2x/while/body/_64/model/UpCunet2x/while/UpCunet2x.unet1.conv1_down/BiasAdd/ReadVariableOp", "^StatefulPartitionedCall/model/UpCunet2x/while/body/_64/model/UpCunet2x/while/UpCunet2x.unet1.conv1_down/Conv2D/ReadVariableOp", "^StatefulPartitionedCall/model/UpCunet2x/while/body/_64/model/UpCunet2x/while/sequential_1/unet.conv2.conv.0/BiasAdd/ReadVariableOp", "^StatefulPartitionedCall/model/UpCunet2x/while/body/_64/model/UpCunet2x/while/sequential_1/unet.conv2.conv.0/Conv2D/ReadVariableOp", "^StatefulPartitionedCall/model/UpCunet2x/while/body/_64/model/UpCunet2x/while/sequential_1/unet.conv2.conv.2/BiasAdd/ReadVariableOp", "^StatefulPartitionedCall/model/UpCunet2x/while/body/_64/model/UpCunet2x/while/sequential_1/unet.conv2.conv.2/Conv2D/ReadVariableOp"], "attr": {"_has_manual_control_dependencies": {"b": true}}}, {"name": "StatefulPartitionedCall/model/UpCunet2x/while_1/enter/_160", "op": "Enter", "input": ["StatefulPartitionedCall/model/UpCunet2x/truediv_1", "^StatefulPartitionedCall/model/UpCunet2x/while_1/LoopControlInputs/_181"], "attr": {"is_constant": {"b": false}, "frame_name": {"s": "U3RhdGVmdWxQYXJ0aXRpb25lZENhbGwvbW9kZWwvVXBDdW5ldDJ4L3doaWxlXzE="}, "T": {"type": "DT_FLOAT"}, "parallel_iterations": {"i": "10"}}}, {"name": "StatefulPartitionedCall/model/UpCunet2x/while_1/enter/_157", "op": "Enter", "input": ["StatefulPartitionedCall/model/UpCunet2x/TensorArrayV2_2", "^StatefulPartitionedCall/model/UpCunet2x/while_1/LoopControlInputs/_181"], "attr": {"is_constant": {"b": false}, "frame_name": {"s": "U3RhdGVmdWxQYXJ0aXRpb25lZENhbGwvbW9kZWwvVXBDdW5ldDJ4L3doaWxlXzE="}, "T": {"type": "DT_VARIANT"}, "parallel_iterations": {"i": "10"}}}, {"name": "StatefulPartitionedCall/model/UpCunet2x/while_1/enter/_158", "op": "Enter", "input": ["StatefulPartitionedCall/model/UpCunet2x/mul_8", "^StatefulPartitionedCall/model/UpCunet2x/while_1/LoopControlInputs/_181"], "attr": {"is_constant": {"b": false}, "frame_name": {"s": "U3RhdGVmdWxQYXJ0aXRpb25lZENhbGwvbW9kZWwvVXBDdW5ldDJ4L3doaWxlXzE="}, "T": {"type": "DT_INT32"}, "parallel_iterations": {"i": "10"}}}, {"name": "StatefulPartitionedCall/model/UpCunet2x/while_1/enter/_151", "op": "Enter", "input": ["StatefulPartitionedCall/model/UpCunet2x/while_1/loop_counter", "^StatefulPartitionedCall/model/UpCunet2x/while_1/LoopControlInputs/_181"], "attr": {"is_constant": {"b": false}, "frame_name": {"s": "U3RhdGVmdWxQYXJ0aXRpb25lZENhbGwvbW9kZWwvVXBDdW5ldDJ4L3doaWxlXzE="}, "T": {"type": "DT_INT32"}, "parallel_iterations": {"i": "10"}}}, {"name": "StatefulPartitionedCall/model/UpCunet2x/while_1/enter/_152", "op": "Enter", "input": ["StatefulPartitionedCall/model/UpCunet2x/while_1/maximum_iterations", "^StatefulPartitionedCall/model/UpCunet2x/while_1/LoopControlInputs/_181"], "attr": {"is_constant": {"b": false}, "frame_name": {"s": "U3RhdGVmdWxQYXJ0aXRpb25lZENhbGwvbW9kZWwvVXBDdW5ldDJ4L3doaWxlXzE="}, "T": {"type": "DT_INT32"}, "parallel_iterations": {"i": "10"}}}, {"name": "StatefulPartitionedCall/model/UpCunet2x/while_1/enter/_154", "op": "Enter", "input": ["StatefulPartitionedCall/model/UpCunet2x/zeros_1", "^StatefulPartitionedCall/model/UpCunet2x/while_1/LoopControlInputs/_181"], "attr": {"is_constant": {"b": false}, "frame_name": {"s": "U3RhdGVmdWxQYXJ0aXRpb25lZENhbGwvbW9kZWwvVXBDdW5ldDJ4L3doaWxlXzE="}, "T": {"type": "DT_FLOAT"}, "parallel_iterations": {"i": "10"}}}, {"name": "StatefulPartitionedCall/model/UpCunet2x/while_1/enter/_155", "op": "Enter", "input": ["StatefulPartitionedCall/model/UpCunet2x/while/exit/_126", "^StatefulPartitionedCall/model/UpCunet2x/while_1/LoopControlInputs/_181"], "attr": {"is_constant": {"b": false}, "frame_name": {"s": "U3RhdGVmdWxQYXJ0aXRpb25lZENhbGwvbW9kZWwvVXBDdW5ldDJ4L3doaWxlXzE="}, "T": {"type": "DT_VARIANT"}, "parallel_iterations": {"i": "10"}}}, {"name": "StatefulPartitionedCall/model/UpCunet2x/while_1/enter/_156", "op": "Enter", "input": ["StatefulPartitionedCall/model/UpCunet2x/while/exit/_127", "^StatefulPartitionedCall/model/UpCunet2x/while_1/LoopControlInputs/_181"], "attr": {"is_constant": {"b": false}, "frame_name": {"s": "U3RhdGVmdWxQYXJ0aXRpb25lZENhbGwvbW9kZWwvVXBDdW5ldDJ4L3doaWxlXzE="}, "T": {"type": "DT_VARIANT"}, "parallel_iterations": {"i": "10"}}}, {"name": "StatefulPartitionedCall/model/UpCunet2x/while_1/enter/_153", "op": "Enter", "input": ["StatefulPartitionedCall/model/UpCunet2x/range_1/start", "^StatefulPartitionedCall/model/UpCunet2x/while_1/LoopControlInputs/_181"], "attr": {"is_constant": {"b": false}, "frame_name": {"s": "U3RhdGVmdWxQYXJ0aXRpb25lZENhbGwvbW9kZWwvVXBDdW5ldDJ4L3doaWxlXzE="}, "T": {"type": "DT_INT32"}, "parallel_iterations": {"i": "10"}}}, {"name": "StatefulPartitionedCall/model/UpCunet2x/while_1/enter/_180", "op": "Enter", "input": ["StatefulPartitionedCall/model/UpCunet2x/range_1/delta", "^StatefulPartitionedCall/model/UpCunet2x/while_1/LoopControlInputs/_181"], "attr": {"is_constant": {"b": false}, "frame_name": {"s": "U3RhdGVmdWxQYXJ0aXRpb25lZENhbGwvbW9kZWwvVXBDdW5ldDJ4L3doaWxlXzE="}, "T": {"type": "DT_INT32"}, "parallel_iterations": {"i": "10"}}}, {"name": "StatefulPartitionedCall/model/UpCunet2x/while_1/enter/_159", "op": "Enter", "input": ["Func/StatefulPartitionedCall/input/_11", "^StatefulPartitionedCall/model/UpCunet2x/while_1/LoopControlInputs/_181"], "attr": {"is_constant": {"b": true}, "_has_manual_control_dependencies": {"b": true}, "T": {"type": "DT_FLOAT"}, "frame_name": {"s": "U3RhdGVmdWxQYXJ0aXRpb25lZENhbGwvbW9kZWwvVXBDdW5ldDJ4L3doaWxlXzE="}, "parallel_iterations": {"i": "10"}}}, {"name": "StatefulPartitionedCall/model/UpCunet2x/while_1/enter/_161", "op": "Enter", "input": ["Func/StatefulPartitionedCall/input/_12", "^StatefulPartitionedCall/model/UpCunet2x/while_1/LoopControlInputs/_181"], "attr": {"is_constant": {"b": true}, "_has_manual_control_dependencies": {"b": true}, "T": {"type": "DT_FLOAT"}, "frame_name": {"s": "U3RhdGVmdWxQYXJ0aXRpb25lZENhbGwvbW9kZWwvVXBDdW5ldDJ4L3doaWxlXzE="}, "parallel_iterations": {"i": "10"}}}, {"name": "StatefulPartitionedCall/model/UpCunet2x/while_1/enter/_162", "op": "Enter", "input": ["Func/StatefulPartitionedCall/input/_13", "^StatefulPartitionedCall/model/UpCunet2x/while_1/LoopControlInputs/_181"], "attr": {"is_constant": {"b": true}, "_has_manual_control_dependencies": {"b": true}, "T": {"type": "DT_FLOAT"}, "frame_name": {"s": "U3RhdGVmdWxQYXJ0aXRpb25lZENhbGwvbW9kZWwvVXBDdW5ldDJ4L3doaWxlXzE="}, "parallel_iterations": {"i": "10"}}}, {"name": "StatefulPartitionedCall/model/UpCunet2x/while_1/enter/_163", "op": "Enter", "input": ["Func/StatefulPartitionedCall/input/_14", "^StatefulPartitionedCall/model/UpCunet2x/while_1/LoopControlInputs/_181"], "attr": {"is_constant": {"b": true}, "frame_name": {"s": "U3RhdGVmdWxQYXJ0aXRpb25lZENhbGwvbW9kZWwvVXBDdW5ldDJ4L3doaWxlXzE="}, "T": {"type": "DT_FLOAT"}, "_has_manual_control_dependencies": {"b": true}, "parallel_iterations": {"i": "10"}}}, {"name": "StatefulPartitionedCall/model/UpCunet2x/while_1/enter/_164", "op": "Enter", "input": ["Func/StatefulPartitionedCall/input/_15", "^StatefulPartitionedCall/model/UpCunet2x/while_1/LoopControlInputs/_181"], "attr": {"is_constant": {"b": true}, "_has_manual_control_dependencies": {"b": true}, "T": {"type": "DT_FLOAT"}, "frame_name": {"s": "U3RhdGVmdWxQYXJ0aXRpb25lZENhbGwvbW9kZWwvVXBDdW5ldDJ4L3doaWxlXzE="}, "parallel_iterations": {"i": "10"}}}, {"name": "StatefulPartitionedCall/model/UpCunet2x/while_1/enter/_165", "op": "Enter", "input": ["Func/StatefulPartitionedCall/input/_16", "^StatefulPartitionedCall/model/UpCunet2x/while_1/LoopControlInputs/_181"], "attr": {"is_constant": {"b": true}, "_has_manual_control_dependencies": {"b": true}, "T": {"type": "DT_FLOAT"}, "frame_name": {"s": "U3RhdGVmdWxQYXJ0aXRpb25lZENhbGwvbW9kZWwvVXBDdW5ldDJ4L3doaWxlXzE="}, "parallel_iterations": {"i": "10"}}}, {"name": "StatefulPartitionedCall/model/UpCunet2x/while_1/enter/_166", "op": "Enter", "input": ["Func/StatefulPartitionedCall/input/_17", "^StatefulPartitionedCall/model/UpCunet2x/while_1/LoopControlInputs/_181"], "attr": {"is_constant": {"b": true}, "frame_name": {"s": "U3RhdGVmdWxQYXJ0aXRpb25lZENhbGwvbW9kZWwvVXBDdW5ldDJ4L3doaWxlXzE="}, "T": {"type": "DT_FLOAT"}, "_has_manual_control_dependencies": {"b": true}, "parallel_iterations": {"i": "10"}}}, {"name": "StatefulPartitionedCall/model/UpCunet2x/while_1/enter/_167", "op": "Enter", "input": ["Func/StatefulPartitionedCall/input/_18", "^StatefulPartitionedCall/model/UpCunet2x/while_1/LoopControlInputs/_181"], "attr": {"is_constant": {"b": true}, "_has_manual_control_dependencies": {"b": true}, "T": {"type": "DT_FLOAT"}, "frame_name": {"s": "U3RhdGVmdWxQYXJ0aXRpb25lZENhbGwvbW9kZWwvVXBDdW5ldDJ4L3doaWxlXzE="}, "parallel_iterations": {"i": "10"}}}, {"name": "StatefulPartitionedCall/model/UpCunet2x/while_1/enter/_168", "op": "Enter", "input": ["Func/StatefulPartitionedCall/input/_19", "^StatefulPartitionedCall/model/UpCunet2x/while_1/LoopControlInputs/_181"], "attr": {"is_constant": {"b": true}, "_has_manual_control_dependencies": {"b": true}, "T": {"type": "DT_FLOAT"}, "frame_name": {"s": "U3RhdGVmdWxQYXJ0aXRpb25lZENhbGwvbW9kZWwvVXBDdW5ldDJ4L3doaWxlXzE="}, "parallel_iterations": {"i": "10"}}}, {"name": "StatefulPartitionedCall/model/UpCunet2x/while_1/enter/_169", "op": "Enter", "input": ["Func/StatefulPartitionedCall/input/_20", "^StatefulPartitionedCall/model/UpCunet2x/while_1/LoopControlInputs/_181"], "attr": {"is_constant": {"b": true}, "_has_manual_control_dependencies": {"b": true}, "T": {"type": "DT_FLOAT"}, "frame_name": {"s": "U3RhdGVmdWxQYXJ0aXRpb25lZENhbGwvbW9kZWwvVXBDdW5ldDJ4L3doaWxlXzE="}, "parallel_iterations": {"i": "10"}}}, {"name": "StatefulPartitionedCall/model/UpCunet2x/while_1/enter/_170", "op": "Enter", "input": ["Func/StatefulPartitionedCall/input/_21", "^StatefulPartitionedCall/model/UpCunet2x/while_1/LoopControlInputs/_181"], "attr": {"is_constant": {"b": true}, "_has_manual_control_dependencies": {"b": true}, "T": {"type": "DT_FLOAT"}, "frame_name": {"s": "U3RhdGVmdWxQYXJ0aXRpb25lZENhbGwvbW9kZWwvVXBDdW5ldDJ4L3doaWxlXzE="}, "parallel_iterations": {"i": "10"}}}, {"name": "StatefulPartitionedCall/model/UpCunet2x/while_1/enter/_171", "op": "Enter", "input": ["Func/StatefulPartitionedCall/input/_22", "^StatefulPartitionedCall/model/UpCunet2x/while_1/LoopControlInputs/_181"], "attr": {"is_constant": {"b": true}, "_has_manual_control_dependencies": {"b": true}, "T": {"type": "DT_FLOAT"}, "frame_name": {"s": "U3RhdGVmdWxQYXJ0aXRpb25lZENhbGwvbW9kZWwvVXBDdW5ldDJ4L3doaWxlXzE="}, "parallel_iterations": {"i": "10"}}}, {"name": "StatefulPartitionedCall/model/UpCunet2x/while_1/enter/_172", "op": "Enter", "input": ["Func/StatefulPartitionedCall/input/_23", "^StatefulPartitionedCall/model/UpCunet2x/while_1/LoopControlInputs/_181"], "attr": {"is_constant": {"b": true}, "_has_manual_control_dependencies": {"b": true}, "T": {"type": "DT_FLOAT"}, "frame_name": {"s": "U3RhdGVmdWxQYXJ0aXRpb25lZENhbGwvbW9kZWwvVXBDdW5ldDJ4L3doaWxlXzE="}, "parallel_iterations": {"i": "10"}}}, {"name": "StatefulPartitionedCall/model/UpCunet2x/while_1/enter/_173", "op": "Enter", "input": ["Func/StatefulPartitionedCall/input/_24", "^StatefulPartitionedCall/model/UpCunet2x/while_1/LoopControlInputs/_181"], "attr": {"is_constant": {"b": true}, "_has_manual_control_dependencies": {"b": true}, "T": {"type": "DT_FLOAT"}, "frame_name": {"s": "U3RhdGVmdWxQYXJ0aXRpb25lZENhbGwvbW9kZWwvVXBDdW5ldDJ4L3doaWxlXzE="}, "parallel_iterations": {"i": "10"}}}, {"name": "StatefulPartitionedCall/model/UpCunet2x/while_1/enter/_174", "op": "Enter", "input": ["Func/StatefulPartitionedCall/input/_25", "^StatefulPartitionedCall/model/UpCunet2x/while_1/LoopControlInputs/_181"], "attr": {"is_constant": {"b": true}, "_has_manual_control_dependencies": {"b": true}, "T": {"type": "DT_FLOAT"}, "frame_name": {"s": "U3RhdGVmdWxQYXJ0aXRpb25lZENhbGwvbW9kZWwvVXBDdW5ldDJ4L3doaWxlXzE="}, "parallel_iterations": {"i": "10"}}}, {"name": "StatefulPartitionedCall/model/UpCunet2x/while_1/enter/_175", "op": "Enter", "input": ["Func/StatefulPartitionedCall/input/_26", "^StatefulPartitionedCall/model/UpCunet2x/while_1/LoopControlInputs/_181"], "attr": {"is_constant": {"b": true}, "_has_manual_control_dependencies": {"b": true}, "T": {"type": "DT_FLOAT"}, "frame_name": {"s": "U3RhdGVmdWxQYXJ0aXRpb25lZENhbGwvbW9kZWwvVXBDdW5ldDJ4L3doaWxlXzE="}, "parallel_iterations": {"i": "10"}}}, {"name": "StatefulPartitionedCall/model/UpCunet2x/while_1/enter/_176", "op": "Enter", "input": ["Func/StatefulPartitionedCall/input/_27", "^StatefulPartitionedCall/model/UpCunet2x/while_1/LoopControlInputs/_181"], "attr": {"is_constant": {"b": true}, "_has_manual_control_dependencies": {"b": true}, "T": {"type": "DT_FLOAT"}, "frame_name": {"s": "U3RhdGVmdWxQYXJ0aXRpb25lZENhbGwvbW9kZWwvVXBDdW5ldDJ4L3doaWxlXzE="}, "parallel_iterations": {"i": "10"}}}, {"name": "StatefulPartitionedCall/model/UpCunet2x/while_1/enter/_177", "op": "Enter", "input": ["Func/StatefulPartitionedCall/input/_28", "^StatefulPartitionedCall/model/UpCunet2x/while_1/LoopControlInputs/_181"], "attr": {"is_constant": {"b": true}, "frame_name": {"s": "U3RhdGVmdWxQYXJ0aXRpb25lZENhbGwvbW9kZWwvVXBDdW5ldDJ4L3doaWxlXzE="}, "T": {"type": "DT_FLOAT"}, "_has_manual_control_dependencies": {"b": true}, "parallel_iterations": {"i": "10"}}}, {"name": "StatefulPartitionedCall/model/UpCunet2x/while_1/enter/_178", "op": "Enter", "input": ["Func/StatefulPartitionedCall/input/_29", "^StatefulPartitionedCall/model/UpCunet2x/while_1/LoopControlInputs/_181"], "attr": {"is_constant": {"b": true}, "_has_manual_control_dependencies": {"b": true}, "T": {"type": "DT_FLOAT"}, "frame_name": {"s": "U3RhdGVmdWxQYXJ0aXRpb25lZENhbGwvbW9kZWwvVXBDdW5ldDJ4L3doaWxlXzE="}, "parallel_iterations": {"i": "10"}}}, {"name": "StatefulPartitionedCall/model/UpCunet2x/while_1/enter/_179", "op": "Enter", "input": ["Func/StatefulPartitionedCall/input/_30", "^StatefulPartitionedCall/model/UpCunet2x/while_1/LoopControlInputs/_181"], "attr": {"is_constant": {"b": true}, "_has_manual_control_dependencies": {"b": true}, "T": {"type": "DT_FLOAT"}, "frame_name": {"s": "U3RhdGVmdWxQYXJ0aXRpb25lZENhbGwvbW9kZWwvVXBDdW5ldDJ4L3doaWxlXzE="}, "parallel_iterations": {"i": "10"}}}, {"name": "StatefulPartitionedCall/model/UpCunet2x/while/body/_64/model/UpCunet2x/while/mul", "op": "Mul", "input": ["StatefulPartitionedCall/model/UpCunet2x/while/body/_64/model/UpCunet2x/while/floordiv", "Func/StatefulPartitionedCall/model/UpCunet2x/while/body/_64/input/_475"], "attr": {"T": {"type": "DT_INT32"}}}, {"name": "StatefulPartitionedCall/model/UpCunet2x/while/body/_64/model/UpCunet2x/while/add", "op": "AddV2", "input": ["StatefulPartitionedCall/model/UpCunet2x/while/body/_64/model/UpCunet2x/while/floordiv_1", "StatefulPartitionedCall/model/UpCunet2x/while/body/_64/model/UpCunet2x/while/add/y"], "attr": {"T": {"type": "DT_INT32"}}}, {"name": "StatefulPartitionedCall/model/UpCunet2x/while/body/_64/model/UpCunet2x/while/add_2", "op": "AddV2", "input": ["StatefulPartitionedCall/model/UpCunet2x/while/body/_64/model/UpCunet2x/while/mod", "StatefulPartitionedCall/model/UpCunet2x/while/body/_64/model/UpCunet2x/while/add_2/y"], "attr": {"T": {"type": "DT_INT32"}}}, {"name": "StatefulPartitionedCall/model/UpCunet2x/while/body/_64/model/UpCunet2x/while/mul_2", "op": "Mul", "input": ["StatefulPartitionedCall/model/UpCunet2x/while/body/_64/model/UpCunet2x/while/mod", "Func/StatefulPartitionedCall/model/UpCunet2x/while/body/_64/input/_476"], "attr": {"T": {"type": "DT_INT32"}}}, {"name": "StatefulPartitionedCall/model/UpCunet2x/while/next_iteration/_145", "op": "NextIteration", "input": ["Func/StatefulPartitionedCall/model/UpCunet2x/while/body/_64/input/_475", "^Func/StatefulPartitionedCall/model/UpCunet2x/while/body/_64/output_control_node/_513"], "attr": {"T": {"type": "DT_INT32"}}}, {"name": "StatefulPartitionedCall/model/UpCunet2x/while/next_iteration/_144", "op": "NextIteration", "input": ["Func/StatefulPartitionedCall/model/UpCunet2x/while/body/_64/input/_474", "^Func/StatefulPartitionedCall/model/UpCunet2x/while/body/_64/output_control_node/_513"], "attr": {"T": {"type": "DT_INT32"}}}, {"name": "StatefulPartitionedCall/model/UpCunet2x/while/next_iteration/_146", "op": "NextIteration", "input": ["Func/StatefulPartitionedCall/model/UpCunet2x/while/body/_64/input/_476", "^Func/StatefulPartitionedCall/model/UpCunet2x/while/body/_64/output_control_node/_513"], "attr": {"T": {"type": "DT_INT32"}}}, {"name": "StatefulPartitionedCall/model/UpCunet2x/while/next_iteration/_147", "op": "NextIteration", "input": ["StatefulPartitionedCall/model/UpCunet2x/while/StatefulPartitionedCall/model/UpCunet2x/MirrorPad_switch/_117:1", "^Func/StatefulPartitionedCall/model/UpCunet2x/while/body/_64/output_control_node/_513", "^Func/StatefulPartitionedCall/model/UpCunet2x/while/body/_64/input_control_node/_464"], "attr": {"T": {"type": "DT_FLOAT"}}}, {"name": "StatefulPartitionedCall/model/UpCunet2x/while/next_iteration/_143", "op": "NextIteration", "input": ["StatefulPartitionedCall/model/UpCunet2x/while/StatefulPartitionedCall/model/UpCunet2x/mul_7_switch/_113:1", "^Func/StatefulPartitionedCall/model/UpCunet2x/while/body/_64/output_control_node/_513", "^Func/StatefulPartitionedCall/model/UpCunet2x/while/body/_64/input_control_node/_464"], "attr": {"T": {"type": "DT_INT32"}}}, {"name": "StatefulPartitionedCall/model/UpCunet2x/while/next_iteration/_148", "op": "NextIteration", "input": ["StatefulPartitionedCall/model/UpCunet2x/while/StatefulPartitionedCall/model/UpCunet2x/range/delta_switch/_118:1", "^Func/StatefulPartitionedCall/model/UpCunet2x/while/body/_64/output_control_node/_513", "^Func/StatefulPartitionedCall/model/UpCunet2x/while/body/_64/input_control_node/_464"], "attr": {"T": {"type": "DT_INT32"}}}, {"name": "StatefulPartitionedCall/model/UpCunet2x/while/next_iteration/_139", "op": "NextIteration", "input": ["StatefulPartitionedCall/model/UpCunet2x/while/body/_64/model/UpCunet2x/while/add_5", "^Func/StatefulPartitionedCall/model/UpCunet2x/while/body/_64/output_control_node/_513", "^StatefulPartitionedCall/model/UpCunet2x/while/body/_64/model/UpCunet2x/while/NoOp"], "attr": {"T": {"type": "DT_INT32"}}}, {"name": "StatefulPartitionedCall/model/UpCunet2x/while/next_iteration/_135", "op": "NextIteration", "input": ["StatefulPartitionedCall/model/UpCunet2x/while/body/_64/model/UpCunet2x/while/add_7", "^Func/StatefulPartitionedCall/model/UpCunet2x/while/body/_64/output_control_node/_513", "^StatefulPartitionedCall/model/UpCunet2x/while/body/_64/model/UpCunet2x/while/NoOp"], "attr": {"T": {"type": "DT_INT32"}}}, {"name": "StatefulPartitionedCall/model/UpCunet2x/while/next_iteration/_137", "op": "NextIteration", "input": ["StatefulPartitionedCall/model/UpCunet2x/while/body/_64/model/UpCunet2x/while/add_6", "^Func/StatefulPartitionedCall/model/UpCunet2x/while/body/_64/output_control_node/_513", "^StatefulPartitionedCall/model/UpCunet2x/while/body/_64/model/UpCunet2x/while/NoOp"], "attr": {"T": {"type": "DT_INT32"}}}, {"name": "StatefulPartitionedCall/model/UpCunet2x/while/next_iteration/_136", "op": "NextIteration", "input": ["StatefulPartitionedCall/model/UpCunet2x/while/StatefulPartitionedCall/model/UpCunet2x/while/maximum_iterations_switch/_106:1", "^Func/StatefulPartitionedCall/model/UpCunet2x/while/body/_64/output_control_node/_513", "^StatefulPartitionedCall/model/UpCunet2x/while/body/_64/model/UpCunet2x/while/NoOp", "^Func/StatefulPartitionedCall/model/UpCunet2x/while/body/_64/input_control_node/_464"], "attr": {"T": {"type": "DT_INT32"}}}, {"name": "StatefulPartitionedCall/model/UpCunet2x/while_1/merge/_190", "op": "Merge", "input": ["StatefulPartitionedCall/model/UpCunet2x/while_1/enter/_160", "StatefulPartitionedCall/model/UpCunet2x/while_1/next_iteration/_223"], "attr": {"N": {"i": "2"}, "_has_manual_control_dependencies": {"b": true}, "T": {"type": "DT_FLOAT"}}}, {"name": "StatefulPartitionedCall/model/UpCunet2x/while_1/merge/_188", "op": "Merge", "input": ["StatefulPartitionedCall/model/UpCunet2x/while_1/enter/_157", "StatefulPartitionedCall/model/UpCunet2x/while_1/next_iteration/_221"], "attr": {"N": {"i": "2"}, "_has_manual_control_dependencies": {"b": true}, "T": {"type": "DT_VARIANT"}}}, {"name": "StatefulPartitionedCall/model/UpCunet2x/while_1/merge/_189", "op": "Merge", "input": ["StatefulPartitionedCall/model/UpCunet2x/while_1/enter/_158", "StatefulPartitionedCall/model/UpCunet2x/while_1/next_iteration/_222"], "attr": {"N": {"i": "2"}, "_has_manual_control_dependencies": {"b": true}, "T": {"type": "DT_INT32"}}}, {"name": "StatefulPartitionedCall/model/UpCunet2x/while_1/merge/_182", "op": "Merge", "input": ["StatefulPartitionedCall/model/UpCunet2x/while_1/enter/_151", "StatefulPartitionedCall/model/UpCunet2x/while_1/next_iteration/_215"], "attr": {"N": {"i": "2"}, "_has_manual_control_dependencies": {"b": true}, "T": {"type": "DT_INT32"}}}, {"name": "StatefulPartitionedCall/model/UpCunet2x/while_1/merge/_183", "op": "Merge", "input": ["StatefulPartitionedCall/model/UpCunet2x/while_1/enter/_152", "StatefulPartitionedCall/model/UpCunet2x/while_1/next_iteration/_216"], "attr": {"N": {"i": "2"}, "_has_manual_control_dependencies": {"b": true}, "T": {"type": "DT_INT32"}}}, {"name": "StatefulPartitionedCall/model/UpCunet2x/while_1/merge/_185", "op": "Merge", "input": ["StatefulPartitionedCall/model/UpCunet2x/while_1/enter/_154", "StatefulPartitionedCall/model/UpCunet2x/while_1/next_iteration/_218"], "attr": {"N": {"i": "2"}, "_has_manual_control_dependencies": {"b": true}, "T": {"type": "DT_FLOAT"}}}, {"name": "StatefulPartitionedCall/model/UpCunet2x/while_1/merge/_186", "op": "Merge", "input": ["StatefulPartitionedCall/model/UpCunet2x/while_1/enter/_155", "StatefulPartitionedCall/model/UpCunet2x/while_1/next_iteration/_219"], "attr": {"N": {"i": "2"}, "_has_manual_control_dependencies": {"b": true}, "T": {"type": "DT_VARIANT"}}}, {"name": "StatefulPartitionedCall/model/UpCunet2x/while_1/merge/_187", "op": "Merge", "input": ["StatefulPartitionedCall/model/UpCunet2x/while_1/enter/_156", "StatefulPartitionedCall/model/UpCunet2x/while_1/next_iteration/_220"], "attr": {"N": {"i": "2"}, "_has_manual_control_dependencies": {"b": true}, "T": {"type": "DT_VARIANT"}}}, {"name": "StatefulPartitionedCall/model/UpCunet2x/while_1/merge/_184", "op": "Merge", "input": ["StatefulPartitionedCall/model/UpCunet2x/while_1/enter/_153", "StatefulPartitionedCall/model/UpCunet2x/while_1/next_iteration/_217"], "attr": {"N": {"i": "2"}, "_has_manual_control_dependencies": {"b": true}, "T": {"type": "DT_INT32"}}}, {"name": "StatefulPartitionedCall/model/UpCunet2x/while_1/merge/_191", "op": "Merge", "input": ["StatefulPartitionedCall/model/UpCunet2x/while_1/enter/_180", "StatefulPartitionedCall/model/UpCunet2x/while_1/next_iteration/_224"], "attr": {"N": {"i": "2"}, "_has_manual_control_dependencies": {"b": true}, "T": {"type": "DT_INT32"}}}, {"name": "StatefulPartitionedCall/model/UpCunet2x/while/body/_64/model/UpCunet2x/while/mul_1", "op": "Mul", "input": ["StatefulPartitionedCall/model/UpCunet2x/while/body/_64/model/UpCunet2x/while/add", "Func/StatefulPartitionedCall/model/UpCunet2x/while/body/_64/input/_475"], "attr": {"T": {"type": "DT_INT32"}}}, {"name": "StatefulPartitionedCall/model/UpCunet2x/while/body/_64/model/UpCunet2x/while/mul_3", "op": "Mul", "input": ["StatefulPartitionedCall/model/UpCunet2x/while/body/_64/model/UpCunet2x/while/add_2", "Func/StatefulPartitionedCall/model/UpCunet2x/while/body/_64/input/_476"], "attr": {"T": {"type": "DT_INT32"}}}, {"name": "StatefulPartitionedCall/model/UpCunet2x/while/body/_64/model/UpCunet2x/while/strided_slice/stack", "op": "Pack", "input": ["StatefulPartitionedCall/model/UpCunet2x/while/body/_64/model/UpCunet2x/while/strided_slice/stack/0", "StatefulPartitionedCall/model/UpCunet2x/while/body/_64/model/UpCunet2x/while/mul", "StatefulPartitionedCall/model/UpCunet2x/while/body/_64/model/UpCunet2x/while/mul_2", "StatefulPartitionedCall/model/UpCunet2x/while/body/_64/model/UpCunet2x/while/strided_slice/stack/3"], "attr": {"N": {"i": "4"}, "axis": {"i": "0"}, "T": {"type": "DT_INT32"}}}, {"name": "StatefulPartitionedCall/model/UpCunet2x/while_1/cond/_149/model/UpCunet2x/while_1/Less", "op": "Less", "input": ["StatefulPartitionedCall/model/UpCunet2x/while_1/merge/_184", "StatefulPartitionedCall/model/UpCunet2x/while_1/merge/_189", "^StatefulPartitionedCall/model/UpCunet2x/while_1/merge/_191", "^StatefulPartitionedCall/model/UpCunet2x/while_1/enter/_159", "^StatefulPartitionedCall/model/UpCunet2x/while_1/enter/_161", "^StatefulPartitionedCall/model/UpCunet2x/while_1/enter/_162", "^StatefulPartitionedCall/model/UpCunet2x/while_1/enter/_163", "^StatefulPartitionedCall/model/UpCunet2x/while_1/enter/_164", "^StatefulPartitionedCall/model/UpCunet2x/while_1/enter/_165", "^StatefulPartitionedCall/model/UpCunet2x/while_1/enter/_166", "^StatefulPartitionedCall/model/UpCunet2x/while_1/enter/_167", "^StatefulPartitionedCall/model/UpCunet2x/while_1/enter/_168", "^StatefulPartitionedCall/model/UpCunet2x/while_1/enter/_169", "^StatefulPartitionedCall/model/UpCunet2x/while_1/enter/_170", "^StatefulPartitionedCall/model/UpCunet2x/while_1/enter/_171", "^StatefulPartitionedCall/model/UpCunet2x/while_1/enter/_172", "^StatefulPartitionedCall/model/UpCunet2x/while_1/enter/_173", "^StatefulPartitionedCall/model/UpCunet2x/while_1/enter/_174", "^StatefulPartitionedCall/model/UpCunet2x/while_1/enter/_175", "^StatefulPartitionedCall/model/UpCunet2x/while_1/enter/_176", "^StatefulPartitionedCall/model/UpCunet2x/while_1/enter/_177", "^StatefulPartitionedCall/model/UpCunet2x/while_1/enter/_178", "^StatefulPartitionedCall/model/UpCunet2x/while_1/enter/_179", "^StatefulPartitionedCall/model/UpCunet2x/while_1/merge/_182", "^StatefulPartitionedCall/model/UpCunet2x/while_1/merge/_183", "^StatefulPartitionedCall/model/UpCunet2x/while_1/merge/_185", "^StatefulPartitionedCall/model/UpCunet2x/while_1/merge/_186", "^StatefulPartitionedCall/model/UpCunet2x/while_1/merge/_187", "^StatefulPartitionedCall/model/UpCunet2x/while_1/merge/_188", "^StatefulPartitionedCall/model/UpCunet2x/while_1/merge/_190"], "attr": {"T": {"type": "DT_INT32"}}}, {"name": "StatefulPartitionedCall/model/UpCunet2x/while/body/_64/model/UpCunet2x/while/add_1", "op": "AddV2", "input": ["StatefulPartitionedCall/model/UpCunet2x/while/body/_64/model/UpCunet2x/while/mul_1", "StatefulPartitionedCall/model/UpCunet2x/while/body/_64/model/UpCunet2x/while/add_1/y"], "attr": {"T": {"type": "DT_INT32"}}}, {"name": "StatefulPartitionedCall/model/UpCunet2x/while/body/_64/model/UpCunet2x/while/add_3", "op": "AddV2", "input": ["StatefulPartitionedCall/model/UpCunet2x/while/body/_64/model/UpCunet2x/while/mul_3", "StatefulPartitionedCall/model/UpCunet2x/while/body/_64/model/UpCunet2x/while/add_3/y"], "attr": {"T": {"type": "DT_INT32"}}}, {"name": "StatefulPartitionedCall/model/UpCunet2x/while_1/LoopCond/_192", "op": "LoopCond", "input": ["StatefulPartitionedCall/model/UpCunet2x/while_1/cond/_149/model/UpCunet2x/while_1/Less"]}, {"name": "StatefulPartitionedCall/model/UpCunet2x/while/body/_64/model/UpCunet2x/while/strided_slice/stack_1", "op": "Pack", "input": ["StatefulPartitionedCall/model/UpCunet2x/while/body/_64/model/UpCunet2x/while/strided_slice/stack_1/0", "StatefulPartitionedCall/model/UpCunet2x/while/body/_64/model/UpCunet2x/while/add_1", "StatefulPartitionedCall/model/UpCunet2x/while/body/_64/model/UpCunet2x/while/add_3", "StatefulPartitionedCall/model/UpCunet2x/while/body/_64/model/UpCunet2x/while/strided_slice/stack_1/3"], "attr": {"N": {"i": "4"}, "axis": {"i": "0"}, "T": {"type": "DT_INT32"}}}, {"name": "StatefulPartitionedCall/model/UpCunet2x/while_1/StatefulPartitionedCall/model/UpCunet2x/TensorArrayV2_2_switch/_199", "op": "Switch", "input": ["StatefulPartitionedCall/model/UpCunet2x/while_1/merge/_188", "StatefulPartitionedCall/model/UpCunet2x/while_1/LoopCond/_192"], "attr": {"T": {"type": "DT_VARIANT"}}}, {"name": "StatefulPartitionedCall/model/UpCunet2x/while_1/StatefulPartitionedCall/model/UpCunet2x/mul_8_switch/_200", "op": "Switch", "input": ["StatefulPartitionedCall/model/UpCunet2x/while_1/merge/_189", "StatefulPartitionedCall/model/UpCunet2x/while_1/LoopCond/_192"], "attr": {"T": {"type": "DT_INT32"}}}, {"name": "StatefulPartitionedCall/model/UpCunet2x/while_1/StatefulPartitionedCall/model/UpCunet2x/while_1/loop_counter_switch/_193", "op": "Switch", "input": ["StatefulPartitionedCall/model/UpCunet2x/while_1/merge/_182", "StatefulPartitionedCall/model/UpCunet2x/while_1/LoopCond/_192"], "attr": {"T": {"type": "DT_INT32"}}}, {"name": "StatefulPartitionedCall/model/UpCunet2x/while_1/StatefulPartitionedCall/model/UpCunet2x/while_1/maximum_iterations_switch/_194", "op": "Switch", "input": ["StatefulPartitionedCall/model/UpCunet2x/while_1/merge/_183", "StatefulPartitionedCall/model/UpCunet2x/while_1/LoopCond/_192"], "attr": {"T": {"type": "DT_INT32"}}}, {"name": "StatefulPartitionedCall/model/UpCunet2x/while_1/StatefulPartitionedCall/model/UpCunet2x/while/exit/_126_switch/_197", "op": "Switch", "input": ["StatefulPartitionedCall/model/UpCunet2x/while_1/merge/_186", "StatefulPartitionedCall/model/UpCunet2x/while_1/LoopCond/_192"], "attr": {"T": {"type": "DT_VARIANT"}}}, {"name": "StatefulPartitionedCall/model/UpCunet2x/while_1/StatefulPartitionedCall/model/UpCunet2x/while/exit/_127_switch/_198", "op": "Switch", "input": ["StatefulPartitionedCall/model/UpCunet2x/while_1/merge/_187", "StatefulPartitionedCall/model/UpCunet2x/while_1/LoopCond/_192"], "attr": {"T": {"type": "DT_VARIANT"}}}, {"name": "StatefulPartitionedCall/model/UpCunet2x/while_1/StatefulPartitionedCall/model/UpCunet2x/range_1/delta_switch/_202", "op": "Switch", "input": ["StatefulPartitionedCall/model/UpCunet2x/while_1/merge/_191", "StatefulPartitionedCall/model/UpCunet2x/while_1/LoopCond/_192"], "attr": {"_has_manual_control_dependencies": {"b": true}, "T": {"type": "DT_INT32"}}}, {"name": "StatefulPartitionedCall/model/UpCunet2x/while_1/StatefulPartitionedCall/model/UpCunet2x/range_1/start_switch/_195", "op": "Switch", "input": ["StatefulPartitionedCall/model/UpCunet2x/while_1/merge/_184", "StatefulPartitionedCall/model/UpCunet2x/while_1/LoopCond/_192"], "attr": {"T": {"type": "DT_INT32"}}}, {"name": "StatefulPartitionedCall/model/UpCunet2x/while_1/StatefulPartitionedCall/model/UpCunet2x/zeros_1_switch/_196", "op": "Switch", "input": ["StatefulPartitionedCall/model/UpCunet2x/while_1/merge/_185", "StatefulPartitionedCall/model/UpCunet2x/while_1/LoopCond/_192"], "attr": {"T": {"type": "DT_FLOAT"}}}, {"name": "StatefulPartitionedCall/model/UpCunet2x/while_1/StatefulPartitionedCall/model/UpCunet2x/truediv_1_switch/_201", "op": "Switch", "input": ["StatefulPartitionedCall/model/UpCunet2x/while_1/merge/_190", "StatefulPartitionedCall/model/UpCunet2x/while_1/LoopCond/_192"], "attr": {"_has_manual_control_dependencies": {"b": true}, "T": {"type": "DT_FLOAT"}}}, {"name": "StatefulPartitionedCall/model/UpCunet2x/while/body/_64/model/UpCunet2x/while/strided_slice", "op": "StridedSlice", "input": ["StatefulPartitionedCall/model/UpCunet2x/while/StatefulPartitionedCall/model/UpCunet2x/MirrorPad_switch/_117:1", "StatefulPartitionedCall/model/UpCunet2x/while/body/_64/model/UpCunet2x/while/strided_slice/stack", "StatefulPartitionedCall/model/UpCunet2x/while/body/_64/model/UpCunet2x/while/strided_slice/stack_1", "StatefulPartitionedCall/model/UpCunet2x/while/body/_64/model/UpCunet2x/while/strided_slice/stack_2"], "attr": {"shrink_axis_mask": {"i": "0"}, "new_axis_mask": {"i": "0"}, "Index": {"type": "DT_INT32"}, "begin_mask": {"i": "9"}, "end_mask": {"i": "9"}, "T": {"type": "DT_FLOAT"}, "ellipsis_mask": {"i": "0"}}}, {"name": "StatefulPartitionedCall/model/UpCunet2x/while_1/exit/_210", "op": "Exit", "input": ["StatefulPartitionedCall/model/UpCunet2x/while_1/StatefulPartitionedCall/model/UpCunet2x/TensorArrayV2_2_switch/_199"], "attr": {"_has_manual_control_dependencies": {"b": true}, "T": {"type": "DT_VARIANT"}}}, {"name": "StatefulPartitionedCall/model/UpCunet2x/while_1/exit/_211", "op": "Exit", "input": ["StatefulPartitionedCall/model/UpCunet2x/while_1/StatefulPartitionedCall/model/UpCunet2x/mul_8_switch/_200"], "attr": {"_has_manual_control_dependencies": {"b": true}, "T": {"type": "DT_INT32"}}}, {"name": "StatefulPartitionedCall/model/UpCunet2x/while_1/exit/_204", "op": "Exit", "input": ["StatefulPartitionedCall/model/UpCunet2x/while_1/StatefulPartitionedCall/model/UpCunet2x/while_1/loop_counter_switch/_193"], "attr": {"_has_manual_control_dependencies": {"b": true}, "T": {"type": "DT_INT32"}}}, {"name": "StatefulPartitionedCall/model/UpCunet2x/while_1/loop_body_control/_203", "op": "Identity", "input": ["StatefulPartitionedCall/model/UpCunet2x/while_1/StatefulPartitionedCall/model/UpCunet2x/while_1/loop_counter_switch/_193:1"], "attr": {"_has_manual_control_dependencies": {"b": true}, "T": {"type": "DT_INT32"}}}, {"name": "StatefulPartitionedCall/model/UpCunet2x/while_1/exit/_205", "op": "Exit", "input": ["StatefulPartitionedCall/model/UpCunet2x/while_1/StatefulPartitionedCall/model/UpCunet2x/while_1/maximum_iterations_switch/_194"], "attr": {"_has_manual_control_dependencies": {"b": true}, "T": {"type": "DT_INT32"}}}, {"name": "StatefulPartitionedCall/model/UpCunet2x/while_1/exit/_208", "op": "Exit", "input": ["StatefulPartitionedCall/model/UpCunet2x/while_1/StatefulPartitionedCall/model/UpCunet2x/while/exit/_126_switch/_197"], "attr": {"_has_manual_control_dependencies": {"b": true}, "T": {"type": "DT_VARIANT"}}}, {"name": "StatefulPartitionedCall/model/UpCunet2x/while_1/exit/_209", "op": "Exit", "input": ["StatefulPartitionedCall/model/UpCunet2x/while_1/StatefulPartitionedCall/model/UpCunet2x/while/exit/_127_switch/_198"], "attr": {"_has_manual_control_dependencies": {"b": true}, "T": {"type": "DT_VARIANT"}}}, {"name": "StatefulPartitionedCall/model/UpCunet2x/while_1/exit/_213", "op": "Exit", "input": ["StatefulPartitionedCall/model/UpCunet2x/while_1/StatefulPartitionedCall/model/UpCunet2x/range_1/delta_switch/_202"], "attr": {"_has_manual_control_dependencies": {"b": true}, "T": {"type": "DT_INT32"}}}, {"name": "StatefulPartitionedCall/model/UpCunet2x/while_1/exit/_206", "op": "Exit", "input": ["StatefulPartitionedCall/model/UpCunet2x/while_1/StatefulPartitionedCall/model/UpCunet2x/range_1/start_switch/_195"], "attr": {"_has_manual_control_dependencies": {"b": true}, "T": {"type": "DT_INT32"}}}, {"name": "StatefulPartitionedCall/model/UpCunet2x/while_1/exit/_207", "op": "Exit", "input": ["StatefulPartitionedCall/model/UpCunet2x/while_1/StatefulPartitionedCall/model/UpCunet2x/zeros_1_switch/_196"], "attr": {"_has_manual_control_dependencies": {"b": true}, "T": {"type": "DT_FLOAT"}}}, {"name": "StatefulPartitionedCall/model/UpCunet2x/while_1/exit/_212", "op": "Exit", "input": ["StatefulPartitionedCall/model/UpCunet2x/while_1/StatefulPartitionedCall/model/UpCunet2x/truediv_1_switch/_201"], "attr": {"_has_manual_control_dependencies": {"b": true}, "T": {"type": "DT_FLOAT"}}}, {"name": "StatefulPartitionedCall/model/UpCunet2x/while/body/_64/model/UpCunet2x/while/Shape", "op": "Shape", "input": ["StatefulPartitionedCall/model/UpCunet2x/while/body/_64/model/UpCunet2x/while/strided_slice"], "attr": {"T": {"type": "DT_FLOAT"}, "out_type": {"type": "DT_INT32"}}, "experimentalType": {"typeId": "TFT_PRODUCT", "args": [{"typeId": "TFT_SHAPE_TENSOR", "args": [{"typeId": "TFT_INT32"}]}]}}, {"name": "StatefulPartitionedCall/model/UpCunet2x/while/body/_64/model/UpCunet2x/while/UpCunet2x.unet1.conv1/sequential/leaky_re_lu/LeakyRelu", "op": "_FusedConv2D", "input": ["StatefulPartitionedCall/model/UpCunet2x/while/body/_64/model/UpCunet2x/while/strided_slice", "StatefulPartitionedCall/model/UpCunet2x/while/body/_64/model/UpCunet2x/while/UpCunet2x.unet1.conv1/sequential/UpCunet2x.unet1.conv1.conv.0/Conv2D/ReadVariableOp", "StatefulPartitionedCall/model/UpCunet2x/while/body/_64/model/UpCunet2x/while/UpCunet2x.unet1.conv1/sequential/UpCunet2x.unet1.conv1.conv.0/BiasAdd/ReadVariableOp"], "device": "/device:CPU:0", "attr": {"num_host_args": {"i": "0"}, "data_format": {"s": "TkhXQw=="}, "filter_format": {"s": "SFdJTw=="}, "strides": {"list": {"i": ["1", "1", "1", "1"]}}, "num_args": {"i": "1"}, "fused_ops": {"list": {"s": ["Qmlhc0FkZA==", "TGVha3lSZWx1"]}}, "TArgs": {"list": {"type": ["DT_FLOAT"]}}, "padding": {"s": "VkFMSUQ="}, "use_cudnn_on_gpu": {"b": true}, "leakyrelu_alpha": {"f": 0.1}, "epsilon": {"f": 0.0}, "T": {"type": "DT_FLOAT"}, "explicit_paddings": {"list": {}}, "dilations": {"list": {"i": ["1", "1", "1", "1"]}}}}, {"name": "Func/StatefulPartitionedCall/model/UpCunet2x/while_1/body/_150/input_control_node/_546", "op": "NoOp", "input": ["^StatefulPartitionedCall/model/UpCunet2x/while_1/StatefulPartitionedCall/model/UpCunet2x/TensorArrayV2_2_switch/_199", "^StatefulPartitionedCall/model/UpCunet2x/while_1/StatefulPartitionedCall/model/UpCunet2x/mul_8_switch/_200", "^StatefulPartitionedCall/model/UpCunet2x/while_1/StatefulPartitionedCall/model/UpCunet2x/range_1/delta_switch/_202", "^StatefulPartitionedCall/model/UpCunet2x/while_1/StatefulPartitionedCall/model/UpCunet2x/range_1/start_switch/_195", "^StatefulPartitionedCall/model/UpCunet2x/while_1/StatefulPartitionedCall/model/UpCunet2x/truediv_1_switch/_201", "^StatefulPartitionedCall/model/UpCunet2x/while_1/StatefulPartitionedCall/model/UpCunet2x/while/exit/_126_switch/_197", "^StatefulPartitionedCall/model/UpCunet2x/while_1/StatefulPartitionedCall/model/UpCunet2x/while/exit/_127_switch/_198", "^StatefulPartitionedCall/model/UpCunet2x/while_1/loop_body_control/_203", "^StatefulPartitionedCall/model/UpCunet2x/while_1/StatefulPartitionedCall/model/UpCunet2x/while_1/maximum_iterations_switch/_194", "^StatefulPartitionedCall/model/UpCunet2x/while_1/StatefulPartitionedCall/model/UpCunet2x/zeros_1_switch/_196", "^StatefulPartitionedCall/model/UpCunet2x/while_1/enter/_159", "^StatefulPartitionedCall/model/UpCunet2x/while_1/enter/_161", "^StatefulPartitionedCall/model/UpCunet2x/while_1/enter/_162", "^StatefulPartitionedCall/model/UpCunet2x/while_1/enter/_163", "^StatefulPartitionedCall/model/UpCunet2x/while_1/enter/_164", "^StatefulPartitionedCall/model/UpCunet2x/while_1/enter/_165", "^StatefulPartitionedCall/model/UpCunet2x/while_1/enter/_166", "^StatefulPartitionedCall/model/UpCunet2x/while_1/enter/_167", "^StatefulPartitionedCall/model/UpCunet2x/while_1/enter/_168", "^StatefulPartitionedCall/model/UpCunet2x/while_1/enter/_169", "^StatefulPartitionedCall/model/UpCunet2x/while_1/enter/_170", "^StatefulPartitionedCall/model/UpCunet2x/while_1/enter/_171", "^StatefulPartitionedCall/model/UpCunet2x/while_1/enter/_172", "^StatefulPartitionedCall/model/UpCunet2x/while_1/enter/_173", "^StatefulPartitionedCall/model/UpCunet2x/while_1/enter/_174", "^StatefulPartitionedCall/model/UpCunet2x/while_1/enter/_175", "^StatefulPartitionedCall/model/UpCunet2x/while_1/enter/_176", "^StatefulPartitionedCall/model/UpCunet2x/while_1/enter/_177", "^StatefulPartitionedCall/model/UpCunet2x/while_1/enter/_178", "^StatefulPartitionedCall/model/UpCunet2x/while_1/enter/_179"], "attr": {"_has_manual_control_dependencies": {"b": true}}}, {"name": "StatefulPartitionedCall/model/UpCunet2x/truediv_2", "op": "RealDiv", "input": ["StatefulPartitionedCall/model/UpCunet2x/while_1/exit/_207", "StatefulPartitionedCall/model/UpCunet2x/Cast_4"], "attr": {"_has_manual_control_dependencies": {"b": true}, "T": {"type": "DT_FLOAT"}}}, {"name": "StatefulPartitionedCall/model/UpCunet2x/while/body/_64/model/UpCunet2x/while/strided_slice_1", "op": "StridedSlice", "input": ["StatefulPartitionedCall/model/UpCunet2x/while/body/_64/model/UpCunet2x/while/Shape", "StatefulPartitionedCall/model/UpCunet2x/while/body/_64/model/UpCunet2x/while/strided_slice_1/stack", "StatefulPartitionedCall/model/UpCunet2x/while/body/_64/model/UpCunet2x/while/strided_slice_1/stack_1", "StatefulPartitionedCall/model/UpCunet2x/while/body/_64/model/UpCunet2x/while/strided_slice_1/stack_2"], "attr": {"shrink_axis_mask": {"i": "1"}, "new_axis_mask": {"i": "0"}, "Index": {"type": "DT_INT32"}, "begin_mask": {"i": "0"}, "end_mask": {"i": "0"}, "T": {"type": "DT_INT32"}, "ellipsis_mask": {"i": "0"}}}, {"name": "StatefulPartitionedCall/model/UpCunet2x/while/body/_64/model/UpCunet2x/while/UpCunet2x.unet1.conv1/sequential/leaky_re_lu_1/LeakyRelu", "op": "_FusedConv2D", "input": ["StatefulPartitionedCall/model/UpCunet2x/while/body/_64/model/UpCunet2x/while/UpCunet2x.unet1.conv1/sequential/leaky_re_lu/LeakyRelu", "StatefulPartitionedCall/model/UpCunet2x/while/body/_64/model/UpCunet2x/while/UpCunet2x.unet1.conv1/sequential/UpCunet2x.unet1.conv1.conv.2/Conv2D/ReadVariableOp", "StatefulPartitionedCall/model/UpCunet2x/while/body/_64/model/UpCunet2x/while/UpCunet2x.unet1.conv1/sequential/UpCunet2x.unet1.conv1.conv.2/BiasAdd/ReadVariableOp"], "device": "/device:CPU:0", "attr": {"num_host_args": {"i": "0"}, "data_format": {"s": "TkhXQw=="}, "filter_format": {"s": "SFdJTw=="}, "fused_ops": {"list": {"s": ["Qmlhc0FkZA==", "TGVha3lSZWx1"]}}, "num_args": {"i": "1"}, "strides": {"list": {"i": ["1", "1", "1", "1"]}}, "TArgs": {"list": {"type": ["DT_FLOAT"]}}, "padding": {"s": "VkFMSUQ="}, "use_cudnn_on_gpu": {"b": true}, "leakyrelu_alpha": {"f": 0.1}, "epsilon": {"f": 0.0}, "T": {"type": "DT_FLOAT"}, "explicit_paddings": {"list": {}}, "dilations": {"list": {"i": ["1", "1", "1", "1"]}}}}, {"name": "StatefulPartitionedCall/model/UpCunet2x/while_1/body/_150/model/UpCunet2x/while_1/add_3/y", "op": "Const", "input": ["^Func/StatefulPartitionedCall/model/UpCunet2x/while_1/body/_150/input_control_node/_546"], "attr": {"value": {"tensor": {"dtype": "DT_INT32", "tensorShape": {}}}, "dtype": {"type": "DT_INT32"}}}, {"name": "StatefulPartitionedCall/model/UpCunet2x/while_1/body/_150/model/UpCunet2x/while_1/UpCunet2x.unet1.conv_bottom/strided_slice/stack", "op": "Const", "input": ["^Func/StatefulPartitionedCall/model/UpCunet2x/while_1/body/_150/input_control_node/_546"], "attr": {"value": {"tensor": {"dtype": "DT_INT32", "tensorShape": {"dim": [{"size": "1"}]}}}, "dtype": {"type": "DT_INT32"}}}, {"name": "StatefulPartitionedCall/model/UpCunet2x/while_1/body/_150/model/UpCunet2x/while_1/UpCunet2x.unet1.conv_bottom/strided_slice/stack_1", "op": "Const", "input": ["^Func/StatefulPartitionedCall/model/UpCunet2x/while_1/body/_150/input_control_node/_546"], "attr": {"value": {"tensor": {"dtype": "DT_INT32", "tensorShape": {"dim": [{"size": "1"}]}}}, "dtype": {"type": "DT_INT32"}}}, {"name": "StatefulPartitionedCall/model/UpCunet2x/while_1/body/_150/model/UpCunet2x/while_1/UpCunet2x.unet1.conv_bottom/strided_slice/stack_2", "op": "Const", "input": ["^Func/StatefulPartitionedCall/model/UpCunet2x/while_1/body/_150/input_control_node/_546"], "attr": {"value": {"tensor": {"dtype": "DT_INT32", "tensorShape": {"dim": [{"size": "1"}]}}}, "dtype": {"type": "DT_INT32"}}}, {"name": "StatefulPartitionedCall/model/UpCunet2x/while_1/body/_150/model/UpCunet2x/while_1/UpCunet2x.unet1.conv_bottom/strided_slice_1/stack", "op": "Const", "input": ["^Func/StatefulPartitionedCall/model/UpCunet2x/while_1/body/_150/input_control_node/_546"], "attr": {"value": {"tensor": {"dtype": "DT_INT32", "tensorShape": {"dim": [{"size": "1"}]}}}, "dtype": {"type": "DT_INT32"}}}, {"name": "StatefulPartitionedCall/model/UpCunet2x/while_1/body/_150/model/UpCunet2x/while_1/UpCunet2x.unet1.conv_bottom/strided_slice_1/stack_1", "op": "Const", "input": ["^Func/StatefulPartitionedCall/model/UpCunet2x/while_1/body/_150/input_control_node/_546"], "attr": {"value": {"tensor": {"dtype": "DT_INT32", "tensorShape": {"dim": [{"size": "1"}]}}}, "dtype": {"type": "DT_INT32"}}}, {"name": "StatefulPartitionedCall/model/UpCunet2x/while_1/body/_150/model/UpCunet2x/while_1/UpCunet2x.unet1.conv_bottom/strided_slice_1/stack_2", "op": "Const", "input": ["^Func/StatefulPartitionedCall/model/UpCunet2x/while_1/body/_150/input_control_node/_546"], "attr": {"value": {"tensor": {"dtype": "DT_INT32", "tensorShape": {"dim": [{"size": "1"}]}}}, "dtype": {"type": "DT_INT32"}}}, {"name": "StatefulPartitionedCall/model/UpCunet2x/while_1/body/_150/model/UpCunet2x/while_1/UpCunet2x.unet1.conv_bottom/mul/y", "op": "Const", "input": ["^Func/StatefulPartitionedCall/model/UpCunet2x/while_1/body/_150/input_control_node/_546"], "attr": {"value": {"tensor": {"dtype": "DT_INT32", "tensorShape": {}}}, "dtype": {"type": "DT_INT32"}}}, {"name": "StatefulPartitionedCall/model/UpCunet2x/while_1/body/_150/model/UpCunet2x/while_1/UpCunet2x.unet1.conv_bottom/add/y", "op": "Const", "input": ["^Func/StatefulPartitionedCall/model/UpCunet2x/while_1/body/_150/input_control_node/_546"], "attr": {"value": {"tensor": {"dtype": "DT_INT32", "tensorShape": {}}}, "dtype": {"type": "DT_INT32"}}}, {"name": "StatefulPartitionedCall/model/UpCunet2x/while_1/body/_150/model/UpCunet2x/while_1/UpCunet2x.unet1.conv_bottom/strided_slice_2/stack", "op": "Const", "input": ["^Func/StatefulPartitionedCall/model/UpCunet2x/while_1/body/_150/input_control_node/_546"], "attr": {"value": {"tensor": {"dtype": "DT_INT32", "tensorShape": {"dim": [{"size": "1"}]}}}, "dtype": {"type": "DT_INT32"}}}, {"name": "StatefulPartitionedCall/model/UpCunet2x/while_1/body/_150/model/UpCunet2x/while_1/UpCunet2x.unet1.conv_bottom/strided_slice_2/stack_1", "op": "Const", "input": ["^Func/StatefulPartitionedCall/model/UpCunet2x/while_1/body/_150/input_control_node/_546"], "attr": {"value": {"tensor": {"dtype": "DT_INT32", "tensorShape": {"dim": [{"size": "1"}]}}}, "dtype": {"type": "DT_INT32"}}}, {"name": "StatefulPartitionedCall/model/UpCunet2x/while_1/body/_150/model/UpCunet2x/while_1/UpCunet2x.unet1.conv_bottom/strided_slice_2/stack_2", "op": "Const", "input": ["^Func/StatefulPartitionedCall/model/UpCunet2x/while_1/body/_150/input_control_node/_546"], "attr": {"value": {"tensor": {"dtype": "DT_INT32", "tensorShape": {"dim": [{"size": "1"}]}}}, "dtype": {"type": "DT_INT32"}}}, {"name": "StatefulPartitionedCall/model/UpCunet2x/while_1/body/_150/model/UpCunet2x/while_1/UpCunet2x.unet1.conv_bottom/mul_1/y", "op": "Const", "input": ["^Func/StatefulPartitionedCall/model/UpCunet2x/while_1/body/_150/input_control_node/_546"], "attr": {"value": {"tensor": {"dtype": "DT_INT32", "tensorShape": {}}}, "dtype": {"type": "DT_INT32"}}}, {"name": "StatefulPartitionedCall/model/UpCunet2x/while_1/body/_150/model/UpCunet2x/while_1/UpCunet2x.unet1.conv_bottom/add_1/y", "op": "Const", "input": ["^Func/StatefulPartitionedCall/model/UpCunet2x/while_1/body/_150/input_control_node/_546"], "attr": {"value": {"tensor": {"dtype": "DT_INT32", "tensorShape": {}}}, "dtype": {"type": "DT_INT32"}}}, {"name": "StatefulPartitionedCall/model/UpCunet2x/while_1/body/_150/model/UpCunet2x/while_1/UpCunet2x.unet1.conv_bottom/stack/3", "op": "Const", "input": ["^Func/StatefulPartitionedCall/model/UpCunet2x/while_1/body/_150/input_control_node/_546"], "attr": {"value": {"tensor": {"dtype": "DT_INT32", "tensorShape": {}}}, "dtype": {"type": "DT_INT32"}}}, {"name": "StatefulPartitionedCall/model/UpCunet2x/while_1/body/_150/model/UpCunet2x/while_1/strided_slice_2/stack", "op": "Const", "input": ["^Func/StatefulPartitionedCall/model/UpCunet2x/while_1/body/_150/input_control_node/_546"], "attr": {"value": {"tensor": {"dtype": "DT_INT32", "tensorShape": {"dim": [{"size": "4"}]}}}, "dtype": {"type": "DT_INT32"}}}, {"name": "StatefulPartitionedCall/model/UpCunet2x/while_1/body/_150/model/UpCunet2x/while_1/strided_slice_2/stack_1", "op": "Const", "input": ["^Func/StatefulPartitionedCall/model/UpCunet2x/while_1/body/_150/input_control_node/_546"], "attr": {"value": {"tensor": {"dtype": "DT_INT32", "tensorShape": {"dim": [{"size": "4"}]}}}, "dtype": {"type": "DT_INT32"}}}, {"name": "StatefulPartitionedCall/model/UpCunet2x/while_1/body/_150/model/UpCunet2x/while_1/strided_slice_2/stack_2", "op": "Const", "input": ["^Func/StatefulPartitionedCall/model/UpCunet2x/while_1/body/_150/input_control_node/_546"], "attr": {"value": {"tensor": {"dtype": "DT_INT32", "tensorShape": {"dim": [{"size": "4"}]}}}, "dtype": {"type": "DT_INT32"}}}, {"name": "StatefulPartitionedCall/model/UpCunet2x/while_1/body/_150/model/UpCunet2x/while_1/TensorArrayV2Read/TensorListGetItem/element_shape", "op": "Const", "input": ["^Func/StatefulPartitionedCall/model/UpCunet2x/while_1/body/_150/input_control_node/_546"], "attr": {"value": {"tensor": {"dtype": "DT_INT32", "tensorShape": {}}}, "dtype": {"type": "DT_INT32"}}}, {"name": "StatefulPartitionedCall/model/UpCunet2x/while_1/body/_150/model/UpCunet2x/while_1/UpCunet2x.unet1.conv2_up/strided_slice/stack", "op": "Const", "input": ["^Func/StatefulPartitionedCall/model/UpCunet2x/while_1/body/_150/input_control_node/_546"], "attr": {"value": {"tensor": {"dtype": "DT_INT32", "tensorShape": {"dim": [{"size": "1"}]}}}, "dtype": {"type": "DT_INT32"}}}, {"name": "StatefulPartitionedCall/model/UpCunet2x/while_1/body/_150/model/UpCunet2x/while_1/UpCunet2x.unet1.conv2_up/strided_slice/stack_1", "op": "Const", "input": ["^Func/StatefulPartitionedCall/model/UpCunet2x/while_1/body/_150/input_control_node/_546"], "attr": {"value": {"tensor": {"dtype": "DT_INT32", "tensorShape": {"dim": [{"size": "1"}]}}}, "dtype": {"type": "DT_INT32"}}}, {"name": "StatefulPartitionedCall/model/UpCunet2x/while_1/body/_150/model/UpCunet2x/while_1/UpCunet2x.unet1.conv2_up/strided_slice/stack_2", "op": "Const", "input": ["^Func/StatefulPartitionedCall/model/UpCunet2x/while_1/body/_150/input_control_node/_546"], "attr": {"value": {"tensor": {"dtype": "DT_INT32", "tensorShape": {"dim": [{"size": "1"}]}}}, "dtype": {"type": "DT_INT32"}}}, {"name": "StatefulPartitionedCall/model/UpCunet2x/while_1/body/_150/model/UpCunet2x/while_1/UpCunet2x.unet1.conv2_up/strided_slice_1/stack", "op": "Const", "input": ["^Func/StatefulPartitionedCall/model/UpCunet2x/while_1/body/_150/input_control_node/_546"], "attr": {"value": {"tensor": {"dtype": "DT_INT32", "tensorShape": {"dim": [{"size": "1"}]}}}, "dtype": {"type": "DT_INT32"}}}, {"name": "StatefulPartitionedCall/model/UpCunet2x/while_1/body/_150/model/UpCunet2x/while_1/UpCunet2x.unet1.conv2_up/strided_slice_1/stack_1", "op": "Const", "input": ["^Func/StatefulPartitionedCall/model/UpCunet2x/while_1/body/_150/input_control_node/_546"], "attr": {"value": {"tensor": {"dtype": "DT_INT32", "tensorShape": {"dim": [{"size": "1"}]}}}, "dtype": {"type": "DT_INT32"}}}, {"name": "StatefulPartitionedCall/model/UpCunet2x/while_1/body/_150/model/UpCunet2x/while_1/UpCunet2x.unet1.conv2_up/strided_slice_1/stack_2", "op": "Const", "input": ["^Func/StatefulPartitionedCall/model/UpCunet2x/while_1/body/_150/input_control_node/_546"], "attr": {"value": {"tensor": {"dtype": "DT_INT32", "tensorShape": {"dim": [{"size": "1"}]}}}, "dtype": {"type": "DT_INT32"}}}, {"name": "StatefulPartitionedCall/model/UpCunet2x/while_1/body/_150/model/UpCunet2x/while_1/UpCunet2x.unet1.conv2_up/mul/y", "op": "Const", "input": ["^Func/StatefulPartitionedCall/model/UpCunet2x/while_1/body/_150/input_control_node/_546"], "attr": {"value": {"tensor": {"dtype": "DT_INT32", "tensorShape": {}}}, "dtype": {"type": "DT_INT32"}}}, {"name": "StatefulPartitionedCall/model/UpCunet2x/while_1/body/_150/model/UpCunet2x/while_1/UpCunet2x.unet1.conv2_up/strided_slice_2/stack", "op": "Const", "input": ["^Func/StatefulPartitionedCall/model/UpCunet2x/while_1/body/_150/input_control_node/_546"], "attr": {"value": {"tensor": {"dtype": "DT_INT32", "tensorShape": {"dim": [{"size": "1"}]}}}, "dtype": {"type": "DT_INT32"}}}, {"name": "StatefulPartitionedCall/model/UpCunet2x/while_1/body/_150/model/UpCunet2x/while_1/UpCunet2x.unet1.conv2_up/strided_slice_2/stack_1", "op": "Const", "input": ["^Func/StatefulPartitionedCall/model/UpCunet2x/while_1/body/_150/input_control_node/_546"], "attr": {"value": {"tensor": {"dtype": "DT_INT32", "tensorShape": {"dim": [{"size": "1"}]}}}, "dtype": {"type": "DT_INT32"}}}, {"name": "StatefulPartitionedCall/model/UpCunet2x/while_1/body/_150/model/UpCunet2x/while_1/UpCunet2x.unet1.conv2_up/strided_slice_2/stack_2", "op": "Const", "input": ["^Func/StatefulPartitionedCall/model/UpCunet2x/while_1/body/_150/input_control_node/_546"], "attr": {"value": {"tensor": {"dtype": "DT_INT32", "tensorShape": {"dim": [{"size": "1"}]}}}, "dtype": {"type": "DT_INT32"}}}, {"name": "StatefulPartitionedCall/model/UpCunet2x/while_1/body/_150/model/UpCunet2x/while_1/UpCunet2x.unet1.conv2_up/mul_1/y", "op": "Const", "input": ["^Func/StatefulPartitionedCall/model/UpCunet2x/while_1/body/_150/input_control_node/_546"], "attr": {"value": {"tensor": {"dtype": "DT_INT32", "tensorShape": {}}}, "dtype": {"type": "DT_INT32"}}}, {"name": "StatefulPartitionedCall/model/UpCunet2x/while_1/body/_150/model/UpCunet2x/while_1/UpCunet2x.unet1.conv2_up/stack/3", "op": "Const", "input": ["^Func/StatefulPartitionedCall/model/UpCunet2x/while_1/body/_150/input_control_node/_546"], "attr": {"value": {"tensor": {"dtype": "DT_INT32", "tensorShape": {}}}, "dtype": {"type": "DT_INT32"}}}, {"name": "StatefulPartitionedCall/model/UpCunet2x/while_1/body/_150/model/UpCunet2x/while_1/strided_slice_1/stack", "op": "Const", "input": ["^Func/StatefulPartitionedCall/model/UpCunet2x/while_1/body/_150/input_control_node/_546"], "attr": {"value": {"tensor": {"dtype": "DT_INT32", "tensorShape": {"dim": [{"size": "4"}]}}}, "dtype": {"type": "DT_INT32"}}}, {"name": "StatefulPartitionedCall/model/UpCunet2x/while_1/body/_150/model/UpCunet2x/while_1/strided_slice_1/stack_1", "op": "Const", "input": ["^Func/StatefulPartitionedCall/model/UpCunet2x/while_1/body/_150/input_control_node/_546"], "attr": {"value": {"tensor": {"dtype": "DT_INT32", "tensorShape": {"dim": [{"size": "4"}]}}}, "dtype": {"type": "DT_INT32"}}}, {"name": "StatefulPartitionedCall/model/UpCunet2x/while_1/body/_150/model/UpCunet2x/while_1/strided_slice_1/stack_2", "op": "Const", "input": ["^Func/StatefulPartitionedCall/model/UpCunet2x/while_1/body/_150/input…
ll/model/UpCunet2x/while_4/body/_368/model/UpCunet2x/while_4/while/body/_810/model/UpCunet2x/while_4/while/Add_4"], "device": "/device:CPU:0", "attr": {"T": {"type": "DT_FLOAT"}}}, {"name": "StatefulPartitionedCall/model/UpCunet2x/while_4/body/_368/model/UpCunet2x/while_4/while/body/_810/model/UpCunet2x/while_4/while/mul_4", "op": "Mul", "input": ["StatefulPartitionedCall/model/UpCunet2x/while_4/body/_368/model/UpCunet2x/while_4/while/body/_810/model/UpCunet2x/while_4/while/sub", "StatefulPartitionedCall/model/UpCunet2x/while_4/body/_368/model/UpCunet2x/while_4/while/body/_810/model/UpCunet2x/while_4/while/mul_4/y"], "device": "/device:CPU:0", "attr": {"T": {"type": "DT_FLOAT"}}}, {"name": "StatefulPartitionedCall/model/UpCunet2x/while_4/body/_368/model/UpCunet2x/while_4/while/body/_810/model/UpCunet2x/while_4/while/Round", "op": "Round", "input": ["StatefulPartitionedCall/model/UpCunet2x/while_4/body/_368/model/UpCunet2x/while_4/while/body/_810/model/UpCunet2x/while_4/while/mul_4"], "device": "/device:CPU:0", "attr": {"T": {"type": "DT_FLOAT"}}}, {"name": "StatefulPartitionedCall/model/UpCunet2x/while_4/body/_368/model/UpCunet2x/while_4/while/body/_810/model/UpCunet2x/while_4/while/clip_by_value/Minimum", "op": "Minimum", "input": ["StatefulPartitionedCall/model/UpCunet2x/while_4/body/_368/model/UpCunet2x/while_4/while/body/_810/model/UpCunet2x/while_4/while/Round", "StatefulPartitionedCall/model/UpCunet2x/while_4/body/_368/model/UpCunet2x/while_4/while/body/_810/model/UpCunet2x/while_4/while/clip_by_value/Minimum/y"], "device": "/device:CPU:0", "attr": {"T": {"type": "DT_FLOAT"}}}, {"name": "StatefulPartitionedCall/model/UpCunet2x/while_4/body/_368/model/UpCunet2x/while_4/while/body/_810/model/UpCunet2x/while_4/while/clip_by_value", "op": "Maximum", "input": ["StatefulPartitionedCall/model/UpCunet2x/while_4/body/_368/model/UpCunet2x/while_4/while/body/_810/model/UpCunet2x/while_4/while/clip_by_value/Minimum", "StatefulPartitionedCall/model/UpCunet2x/while_4/body/_368/model/UpCunet2x/while_4/while/body/_810/model/UpCunet2x/while_4/while/clip_by_value/y"], "device": "/device:CPU:0", "attr": {"T": {"type": "DT_FLOAT"}}}, {"name": "StatefulPartitionedCall/model/UpCunet2x/while_4/body/_368/model/UpCunet2x/while_4/while/body/_810/model/UpCunet2x/while_4/while/Cast", "op": "Cast", "input": ["StatefulPartitionedCall/model/UpCunet2x/while_4/body/_368/model/UpCunet2x/while_4/while/body/_810/model/UpCunet2x/while_4/while/clip_by_value"], "device": "/device:CPU:0", "attr": {"SrcT": {"type": "DT_FLOAT"}, "DstT": {"type": "DT_UINT8"}, "Truncate": {"b": false}}}, {"name": "StatefulPartitionedCall/model/UpCunet2x/while_4/body/_368/model/UpCunet2x/while_4/while/body/_810/model/UpCunet2x/while_4/while/TensorArrayV2Write/TensorListSetItem", "op": "TensorListSetItem", "input": ["StatefulPartitionedCall/model/UpCunet2x/while_4/body/_368/model/UpCunet2x/while_4/while/StatefulPartitionedCall/model/UpCunet2x/while_4/body/_368/model/UpCunet2x/while_4/TensorArrayV2_1_switch/_850:1", "Func/StatefulPartitionedCall/model/UpCunet2x/while_4/body/_368/model/UpCunet2x/while_4/while/body/_810/input/_912", "StatefulPartitionedCall/model/UpCunet2x/while_4/body/_368/model/UpCunet2x/while_4/while/body/_810/model/UpCunet2x/while_4/while/Cast"], "device": "/device:CPU:0", "attr": {"element_dtype": {"type": "DT_UINT8"}, "resize_if_index_out_of_bounds": {"b": false}}, "experimentalType": {"typeId": "TFT_PRODUCT", "args": [{"typeId": "TFT_ARRAY", "args": [{"typeId": "TFT_TENSOR", "args": [{"typeId": "TFT_UINT8"}]}]}]}}, {"name": "StatefulPartitionedCall/model/UpCunet2x/while_4/body/_368/model/UpCunet2x/while_4/while/next_iteration/_876", "op": "NextIteration", "input": ["StatefulPartitionedCall/model/UpCunet2x/while_4/body/_368/model/UpCunet2x/while_4/while/body/_810/model/UpCunet2x/while_4/while/TensorArrayV2Write/TensorListSetItem", "^Func/StatefulPartitionedCall/model/UpCunet2x/while_4/body/_368/model/UpCunet2x/while_4/while/body/_810/output_control_node/_954", "^StatefulPartitionedCall/model/UpCunet2x/while_4/body/_368/model/UpCunet2x/while_4/while/body/_810/model/UpCunet2x/while_4/while/NoOp"], "device": "/device:CPU:0", "attr": {"T": {"type": "DT_VARIANT"}}}], "library": {}, "versions": {"producer": 1482}}, "weightsManifest": [{"paths": ["group1-shard1of3.bin", "group1-shard2of3.bin", "group1-shard3of3.bin"], "weights": [{"name": "StatefulPartitionedCall/model/UpCunet2x/TensorArrayV2Stack/TensorListStack/element_shape", "shape": [], "dtype": "int32"}, {"name": "StatefulPartitionedCall/model/UpCunet2x/range_4/delta", "shape": [], "dtype": "int32"}, {"name": "StatefulPartitionedCall/model/UpCunet2x/while_4/loop_counter", "shape": [], "dtype": "int32"}, {"name": "StatefulPartitionedCall/model/UpCunet2x/while_4/maximum_iterations", "shape": [], "dtype": "int32"}, {"name": "StatefulPartitionedCall/model/UpCunet2x/range_4/start", "shape": [], "dtype": "int32"}, {"name": "Func/StatefulPartitionedCall/input/_51", "shape": [1, 1, 64, 8], "dtype": "float32"}, {"name": "Func/StatefulPartitionedCall/input/_52", "shape": [8], "dtype": "float32"}, {"name": "Func/StatefulPartitionedCall/input/_53", "shape": [1, 1, 8, 64], "dtype": "float32"}, {"name": "Func/StatefulPartitionedCall/input/_54", "shape": [64], "dtype": "float32"}, {"name": "Func/StatefulPartitionedCall/input/_55", "shape": [2, 2, 64, 64], "dtype": "float32"}, {"name": "Func/StatefulPartitionedCall/input/_56", "shape": [64], "dtype": "float32"}, {"name": "Func/StatefulPartitionedCall/input/_57", "shape": [3, 3, 64, 64], "dtype": "float32"}, {"name": "Func/StatefulPartitionedCall/input/_58", "shape": [64], "dtype": "float32"}, {"name": "Func/StatefulPartitionedCall/input/_59", "shape": [3, 3, 64, 3], "dtype": "float32"}, {"name": "Func/StatefulPartitionedCall/input/_60", "shape": [3], "dtype": "float32"}, {"name": "StatefulPartitionedCall/model/UpCunet2x/TensorArrayV2_16/element_shape", "shape": [], "dtype": "int32"}, {"name": "StatefulPartitionedCall/model/UpCunet2x/while_3/loop_counter", "shape": [], "dtype": "int32"}, {"name": "StatefulPartitionedCall/model/UpCunet2x/while_3/maximum_iterations", "shape": [], "dtype": "int32"}, {"name": "StatefulPartitionedCall/model/UpCunet2x/range_3/start", "shape": [], "dtype": "int32"}, {"name": "StatefulPartitionedCall/model/UpCunet2x/range_3/delta", "shape": [], "dtype": "int32"}, {"name": "Func/StatefulPartitionedCall/input/_41", "shape": [1, 1, 128, 16], "dtype": "float32"}, {"name": "Func/StatefulPartitionedCall/input/_42", "shape": [16], "dtype": "float32"}, {"name": "Func/StatefulPartitionedCall/input/_43", "shape": [1, 1, 16, 128], "dtype": "float32"}, {"name": "Func/StatefulPartitionedCall/input/_44", "shape": [128], "dtype": "float32"}, {"name": "Func/StatefulPartitionedCall/input/_45", "shape": [2, 2, 128, 128], "dtype": "float32"}, {"name": "Func/StatefulPartitionedCall/input/_46", "shape": [128], "dtype": "float32"}, {"name": "Func/StatefulPartitionedCall/input/_47", "shape": [3, 3, 128, 64], "dtype": "float32"}, {"name": "Func/StatefulPartitionedCall/input/_48", "shape": [64], "dtype": "float32"}, {"name": "Func/StatefulPartitionedCall/input/_49", "shape": [3, 3, 64, 64], "dtype": "float32"}, {"name": "Func/StatefulPartitionedCall/input/_50", "shape": [64], "dtype": "float32"}, {"name": "StatefulPartitionedCall/model/UpCunet2x/zeros_3/packed/1", "shape": [], "dtype": "int32"}, {"name": "StatefulPartitionedCall/model/UpCunet2x/zeros_3/packed/2", "shape": [], "dtype": "int32"}, {"name": "StatefulPartitionedCall/model/UpCunet2x/zeros_3/packed/3", "shape": [], "dtype": "int32"}, {"name": "StatefulPartitionedCall/model/UpCunet2x/zeros_3/Const", "shape": [], "dtype": "float32"}, {"name": "StatefulPartitionedCall/model/UpCunet2x/while_2/loop_counter", "shape": [], "dtype": "int32"}, {"name": "StatefulPartitionedCall/model/UpCunet2x/while_2/maximum_iterations", "shape": [], "dtype": "int32"}, {"name": "StatefulPartitionedCall/model/UpCunet2x/range_2/start", "shape": [], "dtype": "int32"}, {"name": "StatefulPartitionedCall/model/UpCunet2x/range_2/delta", "shape": [], "dtype": "int32"}, {"name": "Func/StatefulPartitionedCall/input/_31", "shape": [1, 1, 128, 16], "dtype": "float32"}, {"name": "Func/StatefulPartitionedCall/input/_32", "shape": [16], "dtype": "float32"}, {"name": "Func/StatefulPartitionedCall/input/_33", "shape": [1, 1, 16, 128], "dtype": "float32"}, {"name": "Func/StatefulPartitionedCall/input/_34", "shape": [128], "dtype": "float32"}, {"name": "Func/StatefulPartitionedCall/input/_35", "shape": [2, 2, 128, 128], "dtype": "float32"}, {"name": "Func/StatefulPartitionedCall/input/_36", "shape": [128], "dtype": "float32"}, {"name": "Func/StatefulPartitionedCall/input/_37", "shape": [3, 3, 128, 256], "dtype": "float32"}, {"name": "Func/StatefulPartitionedCall/input/_38", "shape": [256], "dtype": "float32"}, {"name": "Func/StatefulPartitionedCall/input/_39", "shape": [3, 3, 256, 128], "dtype": "float32"}, {"name": "Func/StatefulPartitionedCall/input/_40", "shape": [128], "dtype": "float32"}, {"name": "StatefulPartitionedCall/model/UpCunet2x/TensorArrayV2_8/element_shape", "shape": [], "dtype": "int32"}, {"name": "StatefulPartitionedCall/model/UpCunet2x/TensorArrayV2_8/num_elements", "shape": [], "dtype": "int32"}, {"name": "StatefulPartitionedCall/model/UpCunet2x/zeros_2/packed/1", "shape": [], "dtype": "int32"}, {"name": "StatefulPartitionedCall/model/UpCunet2x/zeros_2/packed/2", "shape": [], "dtype": "int32"}, {"name": "StatefulPartitionedCall/model/UpCunet2x/zeros_2/packed/3", "shape": [], "dtype": "int32"}, {"name": "StatefulPartitionedCall/model/UpCunet2x/zeros_2/Const", "shape": [], "dtype": "float32"}, {"name": "StatefulPartitionedCall/model/UpCunet2x/while_1/loop_counter", "shape": [], "dtype": "int32"}, {"name": "StatefulPartitionedCall/model/UpCunet2x/while_1/maximum_iterations", "shape": [], "dtype": "int32"}, {"name": "StatefulPartitionedCall/model/UpCunet2x/range_1/start", "shape": [], "dtype": "int32"}, {"name": "StatefulPartitionedCall/model/UpCunet2x/range_1/delta", "shape": [], "dtype": "int32"}, {"name": "Func/StatefulPartitionedCall/input/_11", "shape": [1, 1, 64, 8], "dtype": "float32"}, {"name": "Func/StatefulPartitionedCall/input/_12", "shape": [8], "dtype": "float32"}, {"name": "Func/StatefulPartitionedCall/input/_13", "shape": [1, 1, 8, 64], "dtype": "float32"}, {"name": "Func/StatefulPartitionedCall/input/_14", "shape": [64], "dtype": "float32"}, {"name": "Func/StatefulPartitionedCall/input/_15", "shape": [2, 2, 64, 64], "dtype": "float32"}, {"name": "Func/StatefulPartitionedCall/input/_16", "shape": [64], "dtype": "float32"}, {"name": "Func/StatefulPartitionedCall/input/_17", "shape": [3, 3, 64, 64], "dtype": "float32"}, {"name": "Func/StatefulPartitionedCall/input/_18", "shape": [64], "dtype": "float32"}, {"name": "Func/StatefulPartitionedCall/input/_19", "shape": [4, 4, 3, 64], "dtype": "float32"}, {"name": "Func/StatefulPartitionedCall/input/_20", "shape": [3], "dtype": "float32"}, {"name": "Func/StatefulPartitionedCall/input/_21", "shape": [3, 3, 3, 32], "dtype": "float32"}, {"name": "Func/StatefulPartitionedCall/input/_22", "shape": [32], "dtype": "float32"}, {"name": "Func/StatefulPartitionedCall/input/_23", "shape": [3, 3, 32, 64], "dtype": "float32"}, {"name": "Func/StatefulPartitionedCall/input/_24", "shape": [64], "dtype": "float32"}, {"name": "Func/StatefulPartitionedCall/input/_25", "shape": [2, 2, 64, 64], "dtype": "float32"}, {"name": "Func/StatefulPartitionedCall/input/_26", "shape": [64], "dtype": "float32"}, {"name": "Func/StatefulPartitionedCall/input/_27", "shape": [3, 3, 64, 64], "dtype": "float32"}, {"name": "Func/StatefulPartitionedCall/input/_28", "shape": [64], "dtype": "float32"}, {"name": "Func/StatefulPartitionedCall/input/_29", "shape": [3, 3, 64, 128], "dtype": "float32"}, {"name": "Func/StatefulPartitionedCall/input/_30", "shape": [128], "dtype": "float32"}, {"name": "StatefulPartitionedCall/model/UpCunet2x/TensorArrayV2_2/element_shape", "shape": [], "dtype": "int32"}, {"name": "StatefulPartitionedCall/model/UpCunet2x/TensorArrayV2_2/num_elements", "shape": [], "dtype": "int32"}, {"name": "StatefulPartitionedCall/model/UpCunet2x/zeros_1/packed/1", "shape": [], "dtype": "int32"}, {"name": "StatefulPartitionedCall/model/UpCunet2x/zeros_1/packed/2", "shape": [], "dtype": "int32"}, {"name": "StatefulPartitionedCall/model/UpCunet2x/zeros_1/packed/3", "shape": [], "dtype": "int32"}, {"name": "StatefulPartitionedCall/model/UpCunet2x/zeros_1/Const", "shape": [], "dtype": "float32"}, {"name": "StatefulPartitionedCall/model/UpCunet2x/Const", "shape": [], "dtype": "int32"}, {"name": "StatefulPartitionedCall/model/UpCunet2x/while/loop_counter", "shape": [], "dtype": "int32"}, {"name": "StatefulPartitionedCall/model/UpCunet2x/while/maximum_iterations", "shape": [], "dtype": "int32"}, {"name": "StatefulPartitionedCall/model/UpCunet2x/range/start", "shape": [], "dtype": "int32"}, {"name": "StatefulPartitionedCall/model/UpCunet2x/range/delta", "shape": [], "dtype": "int32"}, {"name": "Func/StatefulPartitionedCall/input/_1", "shape": [3, 3, 3, 32], "dtype": "float32"}, {"name": "Func/StatefulPartitionedCall/input/_2", "shape": [32], "dtype": "float32"}, {"name": "Func/StatefulPartitionedCall/input/_3", "shape": [3, 3, 32, 64], "dtype": "float32"}, {"name": "Func/StatefulPartitionedCall/input/_4", "shape": [64], "dtype": "float32"}, {"name": "Func/StatefulPartitionedCall/input/_5", "shape": [2, 2, 64, 64], "dtype": "float32"}, {"name": "Func/StatefulPartitionedCall/input/_6", "shape": [64], "dtype": "float32"}, {"name": "Func/StatefulPartitionedCall/input/_7", "shape": [3, 3, 64, 128], "dtype": "float32"}, {"name": "Func/StatefulPartitionedCall/input/_8", "shape": [128], "dtype": "float32"}, {"name": "Func/StatefulPartitionedCall/input/_9", "shape": [3, 3, 128, 64], "dtype": "float32"}, {"name": "Func/StatefulPartitionedCall/input/_10", "shape": [64], "dtype": "float32"}, {"name": "StatefulPartitionedCall/model/UpCunet2x/TensorArrayV2/element_shape", "shape": [], "dtype": "int32"}, {"name": "StatefulPartitionedCall/model/UpCunet2x/TensorArrayV2/num_elements", "shape": [], "dtype": "int32"}, {"name": "StatefulPartitionedCall/model/UpCunet2x/TensorArrayV2_1/element_shape", "shape": [], "dtype": "int32"}, {"name": "StatefulPartitionedCall/model/UpCunet2x/TensorArrayV2_1/num_elements", "shape": [], "dtype": "int32"}, {"name": "StatefulPartitionedCall/model/UpCunet2x/strided_slice_4/stack", "shape": [1], "dtype": "int32"}, {"name": "StatefulPartitionedCall/model/UpCunet2x/strided_slice_4/stack_1", "shape": [1], "dtype": "int32"}, {"name": "StatefulPartitionedCall/model/UpCunet2x/strided_slice_4/stack_2", "shape": [1], "dtype": "int32"}, {"name": "StatefulPartitionedCall/model/UpCunet2x/zeros/packed/1", "shape": [], "dtype": "int32"}, {"name": "StatefulPartitionedCall/model/UpCunet2x/zeros/packed/2", "shape": [], "dtype": "int32"}, {"name": "StatefulPartitionedCall/model/UpCunet2x/zeros/packed/3", "shape": [], "dtype": "int32"}, {"name": "StatefulPartitionedCall/model/UpCunet2x/zeros/Const", "shape": [], "dtype": "float32"}, {"name": "StatefulPartitionedCall/model/UpCunet2x/strided_slice_5/stack", "shape": [1], "dtype": "int32"}, {"name": "StatefulPartitionedCall/model/UpCunet2x/strided_slice_5/stack_1", "shape": [1], "dtype": "int32"}, {"name": "StatefulPartitionedCall/model/UpCunet2x/strided_slice_5/stack_2", "shape": [1], "dtype": "int32"}, {"name": "StatefulPartitionedCall/model/UpCunet2x/sub_8/y", "shape": [], "dtype": "int32"}, {"name": "StatefulPartitionedCall/model/UpCunet2x/MirrorPad/paddings/0_1", "shape": [2], "dtype": "int32"}, {"name": "StatefulPartitionedCall/model/UpCunet2x/MirrorPad/paddings/1/0", "shape": [], "dtype": "int32"}, {"name": "StatefulPartitionedCall/model/UpCunet2x/add_7/x", "shape": [], "dtype": "int32"}, {"name": "StatefulPartitionedCall/model/UpCunet2x/sub_4/y", "shape": [], "dtype": "int32"}, {"name": "StatefulPartitionedCall/model/UpCunet2x/add_5/y", "shape": [], "dtype": "int32"}, {"name": "StatefulPartitionedCall/model/UpCunet2x/sub_2/y", "shape": [], "dtype": "int32"}, {"name": "StatefulPartitionedCall/model/UpCunet2x/MirrorPad/paddings/2/0", "shape": [], "dtype": "int32"}, {"name": "StatefulPartitionedCall/model/UpCunet2x/add_8/x", "shape": [], "dtype": "int32"}, {"name": "StatefulPartitionedCall/model/UpCunet2x/sub_5/y", "shape": [], "dtype": "int32"}, {"name": "StatefulPartitionedCall/model/UpCunet2x/add_6/y", "shape": [], "dtype": "int32"}, {"name": "StatefulPartitionedCall/model/UpCunet2x/MirrorPad/paddings/3_1", "shape": [2], "dtype": "int32"}, {"name": "StatefulPartitionedCall/model/UpCunet2x/strided_slice_6/stack", "shape": [1], "dtype": "int32"}, {"name": "StatefulPartitionedCall/model/UpCunet2x/strided_slice_6/stack_1", "shape": [1], "dtype": "int32"}, {"name": "StatefulPartitionedCall/model/UpCunet2x/strided_slice_6/stack_2", "shape": [1], "dtype": "int32"}, {"name": "StatefulPartitionedCall/model/UpCunet2x/sub_9/y", "shape": [], "dtype": "int32"}, {"name": "StatefulPartitionedCall/model/UpCunet2x/sub_3/y", "shape": [], "dtype": "int32"}, {"name": "StatefulPartitionedCall/model/UpCunet2x/mul_2/y", "shape": [], "dtype": "int32"}, {"name": "StatefulPartitionedCall/model/UpCunet2x/strided_slice_1/stack", "shape": [1], "dtype": "int32"}, {"name": "StatefulPartitionedCall/model/UpCunet2x/strided_slice_1/stack_1", "shape": [1], "dtype": "int32"}, {"name": "StatefulPartitionedCall/model/UpCunet2x/strided_slice_1/stack_2", "shape": [1], "dtype": "int32"}, {"name": "ConstantFolding/StatefulPartitionedCall/model/UpCunet2x/truediv_recip", "shape": [], "dtype": "float32"}, {"name": "StatefulPartitionedCall/model/UpCunet2x/add/y", "shape": [], "dtype": "float32"}, {"name": "StatefulPartitionedCall/model/UpCunet2x/strided_slice_2/stack", "shape": [1], "dtype": "int32"}, {"name": "StatefulPartitionedCall/model/UpCunet2x/strided_slice_2/stack_1", "shape": [1], "dtype": "int32"}, {"name": "StatefulPartitionedCall/model/UpCunet2x/strided_slice_2/stack_2", "shape": [1], "dtype": "int32"}, {"name": "StatefulPartitionedCall/model/UpCunet2x/floordiv_2/y", "shape": [], "dtype": "int32"}, {"name": "StatefulPartitionedCall/model/UpCunet2x/while/body/_64/model/UpCunet2x/while/add_5/y", "shape": [], "dtype": "int32"}, {"name": "StatefulPartitionedCall/model/UpCunet2x/while/body/_64/model/UpCunet2x/while/strided_slice_5/stack", "shape": [4], "dtype": "int32"}, {"name": "StatefulPartitionedCall/model/UpCunet2x/while/body/_64/model/UpCunet2x/while/strided_slice_5/stack_1", "shape": [4], "dtype": "int32"}, {"name": "StatefulPartitionedCall/model/UpCunet2x/while/body/_64/model/UpCunet2x/while/strided_slice_5/stack_2", "shape": [4], "dtype": "int32"}, {"name": "StatefulPartitionedCall/model/UpCunet2x/while/body/_64/model/UpCunet2x/while/strided_slice_1/stack", "shape": [1], "dtype": "int32"}, {"name": "StatefulPartitionedCall/model/UpCunet2x/while/body/_64/model/UpCunet2x/while/strided_slice_1/stack_1", "shape": [1], "dtype": "int32"}, {"name": "StatefulPartitionedCall/model/UpCunet2x/while/body/_64/model/UpCunet2x/while/strided_slice_1/stack_2", "shape": [1], "dtype": "int32"}, {"name": "StatefulPartitionedCall/model/UpCunet2x/while/body/_64/model/UpCunet2x/while/add_7/y", "shape": [], "dtype": "int32"}, {"name": "StatefulPartitionedCall/model/UpCunet2x/while/body/_64/model/UpCunet2x/while/strided_slice/stack/0", "shape": [], "dtype": "int32"}, {"name": "StatefulPartitionedCall/model/UpCunet2x/while/body/_64/model/UpCunet2x/while/strided_slice/stack/3", "shape": [], "dtype": "int32"}, {"name": "StatefulPartitionedCall/model/UpCunet2x/while/body/_64/model/UpCunet2x/while/strided_slice/stack_1/0", "shape": [], "dtype": "int32"}, {"name": "StatefulPartitionedCall/model/UpCunet2x/while/body/_64/model/UpCunet2x/while/add/y", "shape": [], "dtype": "int32"}, {"name": "StatefulPartitionedCall/model/UpCunet2x/while/body/_64/model/UpCunet2x/while/add_1/y", "shape": [], "dtype": "int32"}, {"name": "StatefulPartitionedCall/model/UpCunet2x/while/body/_64/model/UpCunet2x/while/add_2/y", "shape": [], "dtype": "int32"}, {"name": "StatefulPartitionedCall/model/UpCunet2x/while/body/_64/model/UpCunet2x/while/add_3/y", "shape": [], "dtype": "int32"}, {"name": "StatefulPartitionedCall/model/UpCunet2x/while/body/_64/model/UpCunet2x/while/strided_slice/stack_1/3", "shape": [], "dtype": "int32"}, {"name": "StatefulPartitionedCall/model/UpCunet2x/while/body/_64/model/UpCunet2x/while/strided_slice/stack_2", "shape": [4], "dtype": "int32"}, {"name": "StatefulPartitionedCall/model/UpCunet2x/while/body/_64/model/UpCunet2x/while/Mean/reduction_indices", "shape": [2], "dtype": "int32"}, {"name": "StatefulPartitionedCall/model/UpCunet2x/while/body/_64/model/UpCunet2x/while/UpCunet2x.unet1.conv1/sequential/UpCunet2x.unet1.conv1.conv.0/BiasAdd/ReadVariableOp", "shape": [32], "dtype": "float32"}, {"name": "StatefulPartitionedCall/model/UpCunet2x/while/body/_64/model/UpCunet2x/while/UpCunet2x.unet1.conv1/sequential/UpCunet2x.unet1.conv1.conv.0/Conv2D/ReadVariableOp", "shape": [3, 3, 3, 32], "dtype": "float32"}, {"name": "StatefulPartitionedCall/model/UpCunet2x/while/body/_64/model/UpCunet2x/while/UpCunet2x.unet1.conv1/sequential/UpCunet2x.unet1.conv1.conv.2/BiasAdd/ReadVariableOp", "shape": [64], "dtype": "float32"}, {"name": "StatefulPartitionedCall/model/UpCunet2x/while/body/_64/model/UpCunet2x/while/UpCunet2x.unet1.conv1/sequential/UpCunet2x.unet1.conv1.conv.2/Conv2D/ReadVariableOp", "shape": [3, 3, 32, 64], "dtype": "float32"}, {"name": "StatefulPartitionedCall/model/UpCunet2x/while/body/_64/model/UpCunet2x/while/UpCunet2x.unet1.conv1_down/BiasAdd/ReadVariableOp", "shape": [64], "dtype": "float32"}, {"name": "StatefulPartitionedCall/model/UpCunet2x/while/body/_64/model/UpCunet2x/while/UpCunet2x.unet1.conv1_down/Conv2D/ReadVariableOp", "shape": [2, 2, 64, 64], "dtype": "float32"}, {"name": "StatefulPartitionedCall/model/UpCunet2x/while/body/_64/model/UpCunet2x/while/sequential_1/unet.conv2.conv.0/BiasAdd/ReadVariableOp", "shape": [128], "dtype": "float32"}, {"name": "StatefulPartitionedCall/model/UpCunet2x/while/body/_64/model/UpCunet2x/while/sequential_1/unet.conv2.conv.0/Conv2D/ReadVariableOp", "shape": [3, 3, 64, 128], "dtype": "float32"}, {"name": "StatefulPartitionedCall/model/UpCunet2x/while/body/_64/model/UpCunet2x/while/sequential_1/unet.conv2.conv.2/BiasAdd/ReadVariableOp", "shape": [64], "dtype": "float32"}, {"name": "StatefulPartitionedCall/model/UpCunet2x/while/body/_64/model/UpCunet2x/while/sequential_1/unet.conv2.conv.2/Conv2D/ReadVariableOp", "shape": [3, 3, 128, 64], "dtype": "float32"}, {"name": "StatefulPartitionedCall/model/UpCunet2x/while_1/body/_150/model/UpCunet2x/while_1/add_3/y", "shape": [], "dtype": "int32"}, {"name": "StatefulPartitionedCall/model/UpCunet2x/while_1/body/_150/model/UpCunet2x/while_1/UpCunet2x.unet1.conv_bottom/strided_slice/stack", "shape": [1], "dtype": "int32"}, {"name": "StatefulPartitionedCall/model/UpCunet2x/while_1/body/_150/model/UpCunet2x/while_1/UpCunet2x.unet1.conv_bottom/strided_slice/stack_1", "shape": [1], "dtype": "int32"}, {"name": "StatefulPartitionedCall/model/UpCunet2x/while_1/body/_150/model/UpCunet2x/while_1/UpCunet2x.unet1.conv_bottom/strided_slice/stack_2", "shape": [1], "dtype": "int32"}, {"name": "StatefulPartitionedCall/model/UpCunet2x/while_1/body/_150/model/UpCunet2x/while_1/UpCunet2x.unet1.conv_bottom/strided_slice_1/stack", "shape": [1], "dtype": "int32"}, {"name": "StatefulPartitionedCall/model/UpCunet2x/while_1/body/_150/model/UpCunet2x/while_1/UpCunet2x.unet1.conv_bottom/strided_slice_1/stack_1", "shape": [1], "dtype": "int32"}, {"name": "StatefulPartitionedCall/model/UpCunet2x/while_1/body/_150/model/UpCunet2x/while_1/UpCunet2x.unet1.conv_bottom/strided_slice_1/stack_2", "shape": [1], "dtype": "int32"}, {"name": "StatefulPartitionedCall/model/UpCunet2x/while_1/body/_150/model/UpCunet2x/while_1/UpCunet2x.unet1.conv_bottom/mul/y", "shape": [], "dtype": "int32"}, {"name": "StatefulPartitionedCall/model/UpCunet2x/while_1/body/_150/model/UpCunet2x/while_1/UpCunet2x.unet1.conv_bottom/add/y", "shape": [], "dtype": "int32"}, {"name": "StatefulPartitionedCall/model/UpCunet2x/while_1/body/_150/model/UpCunet2x/while_1/UpCunet2x.unet1.conv_bottom/strided_slice_2/stack", "shape": [1], "dtype": "int32"}, {"name": "StatefulPartitionedCall/model/UpCunet2x/while_1/body/_150/model/UpCunet2x/while_1/UpCunet2x.unet1.conv_bottom/strided_slice_2/stack_1", "shape": [1], "dtype": "int32"}, {"name": "StatefulPartitionedCall/model/UpCunet2x/while_1/body/_150/model/UpCunet2x/while_1/UpCunet2x.unet1.conv_bottom/strided_slice_2/stack_2", "shape": [1], "dtype": "int32"}, {"name": "StatefulPartitionedCall/model/UpCunet2x/while_1/body/_150/model/UpCunet2x/while_1/UpCunet2x.unet1.conv_bottom/mul_1/y", "shape": [], "dtype": "int32"}, {"name": "StatefulPartitionedCall/model/UpCunet2x/while_1/body/_150/model/UpCunet2x/while_1/UpCunet2x.unet1.conv_bottom/add_1/y", "shape": [], "dtype": "int32"}, {"name": "StatefulPartitionedCall/model/UpCunet2x/while_1/body/_150/model/UpCunet2x/while_1/UpCunet2x.unet1.conv_bottom/stack/3", "shape": [], "dtype": "int32"}, {"name": "StatefulPartitionedCall/model/UpCunet2x/while_1/body/_150/model/UpCunet2x/while_1/strided_slice_2/stack", "shape": [4], "dtype": "int32"}, {"name": "StatefulPartitionedCall/model/UpCunet2x/while_1/body/_150/model/UpCunet2x/while_1/strided_slice_2/stack_1", "shape": [4], "dtype": "int32"}, {"name": "StatefulPartitionedCall/model/UpCunet2x/while_1/body/_150/model/UpCunet2x/while_1/strided_slice_2/stack_2", "shape": [4], "dtype": "int32"}, {"name": "StatefulPartitionedCall/model/UpCunet2x/while_1/body/_150/model/UpCunet2x/while_1/TensorArrayV2Read/TensorListGetItem/element_shape", "shape": [], "dtype": "int32"}, {"name": "StatefulPartitionedCall/model/UpCunet2x/while_1/body/_150/model/UpCunet2x/while_1/UpCunet2x.unet1.conv2_up/strided_slice/stack", "shape": [1], "dtype": "int32"}, {"name": "StatefulPartitionedCall/model/UpCunet2x/while_1/body/_150/model/UpCunet2x/while_1/UpCunet2x.unet1.conv2_up/strided_slice/stack_1", "shape": [1], "dtype": "int32"}, {"name": "StatefulPartitionedCall/model/UpCunet2x/while_1/body/_150/model/UpCunet2x/while_1/UpCunet2x.unet1.conv2_up/strided_slice/stack_2", "shape": [1], "dtype": "int32"}, {"name": "StatefulPartitionedCall/model/UpCunet2x/while_1/body/_150/model/UpCunet2x/while_1/UpCunet2x.unet1.conv2_up/strided_slice_1/stack", "shape": [1], "dtype": "int32"}, {"name": "StatefulPartitionedCall/model/UpCunet2x/while_1/body/_150/model/UpCunet2x/while_1/UpCunet2x.unet1.conv2_up/strided_slice_1/stack_1", "shape": [1], "dtype": "int32"}, {"name": "StatefulPartitionedCall/model/UpCunet2x/while_1/body/_150/model/UpCunet2x/while_1/UpCunet2x.unet1.conv2_up/strided_slice_1/stack_2", "shape": [1], "dtype": "int32"}, {"name": "StatefulPartitionedCall/model/UpCunet2x/while_1/body/_150/model/UpCunet2x/while_1/UpCunet2x.unet1.conv2_up/mul/y", "shape": [], "dtype": "int32"}, {"name": "StatefulPartitionedCall/model/UpCunet2x/while_1/body/_150/model/UpCunet2x/while_1/UpCunet2x.unet1.conv2_up/strided_slice_2/stack", "shape": [1], "dtype": "int32"}, {"name": "StatefulPartitionedCall/model/UpCunet2x/while_1/body/_150/model/UpCunet2x/while_1/UpCunet2x.unet1.conv2_up/strided_slice_2/stack_1", "shape": [1], "dtype": "int32"}, {"name": "StatefulPartitionedCall/model/UpCunet2x/while_1/body/_150/model/UpCunet2x/while_1/UpCunet2x.unet1.conv2_up/strided_slice_2/stack_2", "shape": [1], "dtype": "int32"}, {"name": "StatefulPartitionedCall/model/UpCunet2x/while_1/body/_150/model/UpCunet2x/while_1/UpCunet2x.unet1.conv2_up/mul_1/y", "shape": [], "dtype": "int32"}, {"name": "StatefulPartitionedCall/model/UpCunet2x/while_1/body/_150/model/UpCunet2x/while_1/UpCunet2x.unet1.conv2_up/stack/3", "shape": [], "dtype": "int32"}, {"name": "StatefulPartitionedCall/model/UpCunet2x/while_1/body/_150/model/UpCunet2x/while_1/strided_slice_1/stack", "shape": [4], "dtype": "int32"}, {"name": "StatefulPartitionedCall/model/UpCunet2x/while_1/body/_150/model/UpCunet2x/while_1/strided_slice_1/stack_1", "shape": [4], "dtype": "int32"}, {"name": "StatefulPartitionedCall/model/UpCunet2x/while_1/body/_150/model/UpCunet2x/while_1/strided_slice_1/stack_2", "shape": [4], "dtype": "int32"}, {"name": "StatefulPartitionedCall/model/UpCunet2x/while_1/body/_150/model/UpCunet2x/while_1/TensorArrayV2Read_1/TensorListGetItem/element_shape", "shape": [], "dtype": "int32"}, {"name": "StatefulPartitionedCall/model/UpCunet2x/while_1/body/_150/model/UpCunet2x/while_1/strided_slice/stack", "shape": [4], "dtype": "int32"}, {"name": "StatefulPartitionedCall/model/UpCunet2x/while_1/body/_150/model/UpCunet2x/while_1/strided_slice/stack_1", "shape": [4], "dtype": "int32"}, {"name": "StatefulPartitionedCall/model/UpCunet2x/while_1/body/_150/model/UpCunet2x/while_1/strided_slice/stack_2", "shape": [4], "dtype": "int32"}, {"name": "StatefulPartitionedCall/model/UpCunet2x/while_1/body/_150/model/UpCunet2x/while_1/Mean/reduction_indices", "shape": [2], "dtype": "int32"}, {"name": "StatefulPartitionedCall/model/UpCunet2x/while_1/body/_150/model/UpCunet2x/while_1/UpCunet2x.unet1.conv2_up/BiasAdd/ReadVariableOp", "shape": [64], "dtype": "float32"}, {"name": "StatefulPartitionedCall/model/UpCunet2x/while_1/body/_150/model/UpCunet2x/while_1/UpCunet2x.unet1.conv2_up/conv2d_transpose/ReadVariableOp", "shape": [2, 2, 64, 64], "dtype": "float32"}, {"name": "StatefulPartitionedCall/model/UpCunet2x/while_1/body/_150/model/UpCunet2x/while_1/UpCunet2x.unet1.conv3/BiasAdd/ReadVariableOp", "shape": [64], "dtype": "float32"}, {"name": "StatefulPartitionedCall/model/UpCunet2x/while_1/body/_150/model/UpCunet2x/while_1/UpCunet2x.unet1.conv3/Conv2D/ReadVariableOp", "shape": [3, 3, 64, 64], "dtype": "float32"}, {"name": "StatefulPartitionedCall/model/UpCunet2x/while_1/body/_150/model/UpCunet2x/while_1/UpCunet2x.unet1.conv_bottom/BiasAdd/ReadVariableOp", "shape": [3], "dtype": "float32"}, {"name": "StatefulPartitionedCall/model/UpCunet2x/while_1/body/_150/model/UpCunet2x/while_1/UpCunet2x.unet1.conv_bottom/conv2d_transpose/ReadVariableOp", "shape": [4, 4, 3, 64], "dtype": "float32"}, {"name": "StatefulPartitionedCall/model/UpCunet2x/while_1/body/_150/model/UpCunet2x/while_1/UpCunet2x.unet2.conv1/sequential_2/UpCunet2x.unet2.conv1.conv.0/BiasAdd/ReadVariableOp", "shape": [32], "dtype": "float32"}, {"name": "StatefulPartitionedCall/model/UpCunet2x/while_1/body/_150/model/UpCunet2x/while_1/UpCunet2x.unet2.conv1/sequential_2/UpCunet2x.unet2.conv1.conv.0/Conv2D/ReadVariableOp", "shape": [3, 3, 3, 32], "dtype": "float32"}, {"name": "StatefulPartitionedCall/model/UpCunet2x/while_1/body/_150/model/UpCunet2x/while_1/UpCunet2x.unet2.conv1/sequential_2/UpCunet2x.unet2.conv1.conv.2/BiasAdd/ReadVariableOp", "shape": [64], "dtype": "float32"}, {"name": "StatefulPartitionedCall/model/UpCunet2x/while_1/body/_150/model/UpCunet2x/while_1/UpCunet2x.unet2.conv1/sequential_2/UpCunet2x.unet2.conv1.conv.2/Conv2D/ReadVariableOp", "shape": [3, 3, 32, 64], "dtype": "float32"}, {"name": "StatefulPartitionedCall/model/UpCunet2x/while_1/body/_150/model/UpCunet2x/while_1/UpCunet2x.unet2.conv1_down/BiasAdd/ReadVariableOp", "shape": [64], "dtype": "float32"}, {"name": "StatefulPartitionedCall/model/UpCunet2x/while_1/body/_150/model/UpCunet2x/while_1/UpCunet2x.unet2.conv1_down/Conv2D/ReadVariableOp", "shape": [2, 2, 64, 64], "dtype": "float32"}, {"name": "StatefulPartitionedCall/model/UpCunet2x/while_1/body/_150/model/UpCunet2x/while_1/sequential_3/UpCunet2x.unet2.conv2.conv.0/BiasAdd/ReadVariableOp", "shape": [64], "dtype": "float32"}, {"name": "StatefulPartitionedCall/model/UpCunet2x/while_1/body/_150/model/UpCunet2x/while_1/sequential_3/UpCunet2x.unet2.conv2.conv.0/Conv2D/ReadVariableOp", "shape": [3, 3, 64, 64], "dtype": "float32"}, {"name": "StatefulPartitionedCall/model/UpCunet2x/while_1/body/_150/model/UpCunet2x/while_1/sequential_3/UpCunet2x.unet2.conv2.conv.2/Conv2D/ReadVariableOp", "shape": [3, 3, 64, 128], "dtype": "float32"}, {"name": "StatefulPartitionedCall/model/UpCunet2x/while_1/body/_150/model/UpCunet2x/while_1/unet.conv2.seblock.conv1/BiasAdd/ReadVariableOp", "shape": [8], "dtype": "float32"}, {"name": "StatefulPartitionedCall/model/UpCunet2x/while_1/body/_150/model/UpCunet2x/while_1/unet.conv2.seblock.conv1/Conv2D/ReadVariableOp", "shape": [1, 1, 64, 8], "dtype": "float32"}, {"name": "StatefulPartitionedCall/model/UpCunet2x/while_1/body/_150/model/UpCunet2x/while_1/unet.conv2.seblock.conv2/BiasAdd/ReadVariableOp", "shape": [64], "dtype": "float32"}, {"name": "StatefulPartitionedCall/model/UpCunet2x/while_1/body/_150/model/UpCunet2x/while_1/unet.conv2.seblock.conv2/Conv2D/ReadVariableOp", "shape": [1, 1, 8, 64], "dtype": "float32"}, {"name": "StatefulPartitionedCall/model/UpCunet2x/while_1/body/_150/model/UpCunet2x/while_1/sequential_3/UpCunet2x.unet2.conv2.conv.2/BiasAdd/ReadVariableOp", "shape": [128], "dtype": "float32"}, {"name": "StatefulPartitionedCall/model/UpCunet2x/while_2/body/_226/model/UpCunet2x/while_2/TensorArrayV2Read/TensorListGetItem/element_shape", "shape": [], "dtype": "int32"}, {"name": "StatefulPartitionedCall/model/UpCunet2x/while_2/body/_226/model/UpCunet2x/while_2/TensorArrayV2Read_1/TensorListGetItem/element_shape", "shape": [], "dtype": "int32"}, {"name": "StatefulPartitionedCall/model/UpCunet2x/while_2/body/_226/model/UpCunet2x/while_2/add_2/y", "shape": [], "dtype": "int32"}, {"name": "StatefulPartitionedCall/model/UpCunet2x/while_2/body/_226/model/UpCunet2x/while_2/strided_slice/stack", "shape": [4], "dtype": "int32"}, {"name": "StatefulPartitionedCall/model/UpCunet2x/while_2/body/_226/model/UpCunet2x/while_2/strided_slice/stack_1", "shape": [4], "dtype": "int32"}, {"name": "StatefulPartitionedCall/model/UpCunet2x/while_2/body/_226/model/UpCunet2x/while_2/strided_slice/stack_2", "shape": [4], "dtype": "int32"}, {"name": "StatefulPartitionedCall/model/UpCunet2x/while_2/body/_226/model/UpCunet2x/while_2/TensorArrayV2Read_2/TensorListGetItem/element_shape", "shape": [], "dtype": "int32"}, {"name": "StatefulPartitionedCall/model/UpCunet2x/while_2/body/_226/model/UpCunet2x/while_2/Mean/reduction_indices", "shape": [2], "dtype": "int32"}, {"name": "StatefulPartitionedCall/model/UpCunet2x/while_2/body/_226/model/UpCunet2x/while_2/UpCunet2x.unet2.conv2.seblock.conv1/BiasAdd/ReadVariableOp", "shape": [16], "dtype": "float32"}, {"name": "StatefulPartitionedCall/model/UpCunet2x/while_2/body/_226/model/UpCunet2x/while_2/UpCunet2x.unet2.conv2.seblock.conv1/Conv2D/ReadVariableOp", "shape": [1, 1, 128, 16], "dtype": "float32"}, {"name": "StatefulPartitionedCall/model/UpCunet2x/while_2/body/_226/model/UpCunet2x/while_2/UpCunet2x.unet2.conv2.seblock.conv2/BiasAdd/ReadVariableOp", "shape": [128], "dtype": "float32"}, {"name": "StatefulPartitionedCall/model/UpCunet2x/while_2/body/_226/model/UpCunet2x/while_2/UpCunet2x.unet2.conv2.seblock.conv2/Conv2D/ReadVariableOp", "shape": [1, 1, 16, 128], "dtype": "float32"}, {"name": "StatefulPartitionedCall/model/UpCunet2x/while_2/body/_226/model/UpCunet2x/while_2/UpCunet2x.unet2.conv2_down/BiasAdd/ReadVariableOp", "shape": [128], "dtype": "float32"}, {"name": "StatefulPartitionedCall/model/UpCunet2x/while_2/body/_226/model/UpCunet2x/while_2/UpCunet2x.unet2.conv2_down/Conv2D/ReadVariableOp", "shape": [2, 2, 128, 128], "dtype": "float32"}, {"name": "StatefulPartitionedCall/model/UpCunet2x/while_2/body/_226/model/UpCunet2x/while_2/sequential_4/UpCunet2x.unet2.conv3.conv.0/BiasAdd/ReadVariableOp", "shape": [256], "dtype": "float32"}, {"name": "StatefulPartitionedCall/model/UpCunet2x/while_2/body/_226/model/UpCunet2x/while_2/sequential_4/UpCunet2x.unet2.conv3.conv.0/Conv2D/ReadVariableOp", "shape": [3, 3, 128, 256], "dtype": "float32"}, {"name": "StatefulPartitionedCall/model/UpCunet2x/while_2/body/_226/model/UpCunet2x/while_2/sequential_4/UpCunet2x.unet2.conv3.conv.2/Conv2D/ReadVariableOp", "shape": [3, 3, 256, 128], "dtype": "float32"}, {"name": "StatefulPartitionedCall/model/UpCunet2x/while_2/body/_226/model/UpCunet2x/while_2/sequential_4/UpCunet2x.unet2.conv3.conv.2/BiasAdd/ReadVariableOp", "shape": [128], "dtype": "float32"}, {"name": "StatefulPartitionedCall/model/UpCunet2x/while_3/body/_297/model/UpCunet2x/while_3/TensorArrayV2Read/TensorListGetItem/element_shape", "shape": [], "dtype": "int32"}, {"name": "StatefulPartitionedCall/model/UpCunet2x/while_3/body/_297/model/UpCunet2x/while_3/TensorArrayV2Read_1/TensorListGetItem/element_shape", "shape": [], "dtype": "int32"}, {"name": "StatefulPartitionedCall/model/UpCunet2x/while_3/body/_297/model/UpCunet2x/while_3/add_3/y", "shape": [], "dtype": "int32"}, {"name": "StatefulPartitionedCall/model/UpCunet2x/while_3/body/_297/model/UpCunet2x/while_3/TensorArrayV2Read_2/TensorListGetItem/element_shape", "shape": [], "dtype": "int32"}, {"name": "StatefulPartitionedCall/model/UpCunet2x/while_3/body/_297/model/UpCunet2x/while_3/UpCunet2x.unet2.conv3_up/strided_slice/stack", "shape": [1], "dtype": "int32"}, {"name": "StatefulPartitionedCall/model/UpCunet2x/while_3/body/_297/model/UpCunet2x/while_3/UpCunet2x.unet2.conv3_up/strided_slice/stack_1", "shape": [1], "dtype": "int32"}, {"name": "StatefulPartitionedCall/model/UpCunet2x/while_3/body/_297/model/UpCunet2x/while_3/UpCunet2x.unet2.conv3_up/strided_slice/stack_2", "shape": [1], "dtype": "int32"}, {"name": "StatefulPartitionedCall/model/UpCunet2x/while_3/body/_297/model/UpCunet2x/while_3/UpCunet2x.unet2.conv3_up/strided_slice_1/stack", "shape": [1], "dtype": "int32"}, {"name": "StatefulPartitionedCall/model/UpCunet2x/while_3/body/_297/model/UpCunet2x/while_3/UpCunet2x.unet2.conv3_up/strided_slice_1/stack_1", "shape": [1], "dtype": "int32"}, {"name": "StatefulPartitionedCall/model/UpCunet2x/while_3/body/_297/model/UpCunet2x/while_3/UpCunet2x.unet2.conv3_up/strided_slice_1/stack_2", "shape": [1], "dtype": "int32"}, {"name": "StatefulPartitionedCall/model/UpCunet2x/while_3/body/_297/model/UpCunet2x/while_3/UpCunet2x.unet2.conv3_up/mul/y", "shape": [], "dtype": "int32"}, {"name": "StatefulPartitionedCall/model/UpCunet2x/while_3/body/_297/model/UpCunet2x/while_3/UpCunet2x.unet2.conv3_up/strided_slice_2/stack", "shape": [1], "dtype": "int32"}, {"name": "StatefulPartitionedCall/model/UpCunet2x/while_3/body/_297/model/UpCunet2x/while_3/UpCunet2x.unet2.conv3_up/strided_slice_2/stack_1", "shape": [1], "dtype": "int32"}, {"name": "StatefulPartitionedCall/model/UpCunet2x/while_3/body/_297/model/UpCunet2x/while_3/UpCunet2x.unet2.conv3_up/strided_slice_2/stack_2", "shape": [1], "dtype": "int32"}, {"name": "StatefulPartitionedCall/model/UpCunet2x/while_3/body/_297/model/UpCunet2x/while_3/UpCunet2x.unet2.conv3_up/mul_1/y", "shape": [], "dtype": "int32"}, {"name": "StatefulPartitionedCall/model/UpCunet2x/while_3/body/_297/model/UpCunet2x/while_3/UpCunet2x.unet2.conv3_up/stack/3", "shape": [], "dtype": "int32"}, {"name": "StatefulPartitionedCall/model/UpCunet2x/while_3/body/_297/model/UpCunet2x/while_3/TensorArrayV2Read_3/TensorListGetItem/element_shape", "shape": [], "dtype": "int32"}, {"name": "StatefulPartitionedCall/model/UpCunet2x/while_3/body/_297/model/UpCunet2x/while_3/Mean/reduction_indices", "shape": [2], "dtype": "int32"}, {"name": "StatefulPartitionedCall/model/UpCunet2x/while_3/body/_297/model/UpCunet2x/while_3/UpCunet2x.unet2.conv3.seblock.conv1/BiasAdd/ReadVariableOp", "shape": [16], "dtype": "float32"}, {"name": "StatefulPartitionedCall/model/UpCunet2x/while_3/body/_297/model/UpCunet2x/while_3/UpCunet2x.unet2.conv3.seblock.conv1/Conv2D/ReadVariableOp", "shape": [1, 1, 128, 16], "dtype": "float32"}, {"name": "StatefulPartitionedCall/model/UpCunet2x/while_3/body/_297/model/UpCunet2x/while_3/UpCunet2x.unet2.conv3.seblock.conv2/BiasAdd/ReadVariableOp", "shape": [128], "dtype": "float32"}, {"name": "StatefulPartitionedCall/model/UpCunet2x/while_3/body/_297/model/UpCunet2x/while_3/UpCunet2x.unet2.conv3.seblock.conv2/Conv2D/ReadVariableOp", "shape": [1, 1, 16, 128], "dtype": "float32"}, {"name": "StatefulPartitionedCall/model/UpCunet2x/while_3/body/_297/model/UpCunet2x/while_3/UpCunet2x.unet2.conv3_up/BiasAdd/ReadVariableOp", "shape": [128], "dtype": "float32"}, {"name": "StatefulPartitionedCall/model/UpCunet2x/while_3/body/_297/model/UpCunet2x/while_3/UpCunet2x.unet2.conv3_up/conv2d_transpose/ReadVariableOp", "shape": [2, 2, 128, 128], "dtype": "float32"}, {"name": "StatefulPartitionedCall/model/UpCunet2x/while_3/body/_297/model/UpCunet2x/while_3/sequential_5/UpCunet2x.unet2.conv4.conv.0/BiasAdd/ReadVariableOp", "shape": [64], "dtype": "float32"}, {"name": "StatefulPartitionedCall/model/UpCunet2x/while_3/body/_297/model/UpCunet2x/while_3/sequential_5/UpCunet2x.unet2.conv4.conv.0/Conv2D/ReadVariableOp", "shape": [3, 3, 128, 64], "dtype": "float32"}, {"name": "StatefulPartitionedCall/model/UpCunet2x/while_3/body/_297/model/UpCunet2x/while_3/sequential_5/UpCunet2x.unet2.conv4.conv.2/Conv2D/ReadVariableOp", "shape": [3, 3, 64, 64], "dtype": "float32"}, {"name": "StatefulPartitionedCall/model/UpCunet2x/while_3/body/_297/model/UpCunet2x/while_3/sequential_5/UpCunet2x.unet2.conv4.conv.2/BiasAdd/ReadVariableOp", "shape": [64], "dtype": "float32"}, {"name": "StatefulPartitionedCall/model/UpCunet2x/while_4/body/_368/model/UpCunet2x/while_4/TensorArrayV2Stack/TensorListStack/element_shape", "shape": [], "dtype": "int32"}, {"name": "StatefulPartitionedCall/model/UpCunet2x/while_4/body/_368/model/UpCunet2x/while_4/add_2/y", "shape": [], "dtype": "int32"}, {"name": "StatefulPartitionedCall/model/UpCunet2x/while_4/body/_368/model/UpCunet2x/while_4/while/maximum_iterations", "shape": [], "dtype": "int32"}, {"name": "Func/StatefulPartitionedCall/model/UpCunet2x/while_4/body/_368/input/_772", "shape": [1, 1, 64, 8], "dtype": "float32"}, {"name": "Func/StatefulPartitionedCall/model/UpCunet2x/while_4/body/_368/input/_773", "shape": [8], "dtype": "float32"}, {"name": "Func/StatefulPartitionedCall/model/UpCunet2x/while_4/body/_368/input/_774", "shape": [1, 1, 8, 64], "dtype": "float32"}, {"name": "Func/StatefulPartitionedCall/model/UpCunet2x/while_4/body/_368/input/_775", "shape": [64], "dtype": "float32"}, {"name": "Func/StatefulPartitionedCall/model/UpCunet2x/while_4/body/_368/input/_776", "shape": [2, 2, 64, 64], "dtype": "float32"}, {"name": "Func/StatefulPartitionedCall/model/UpCunet2x/while_4/body/_368/input/_777", "shape": [64], "dtype": "float32"}, {"name": "Func/StatefulPartitionedCall/model/UpCunet2x/while_4/body/_368/input/_778", "shape": [3, 3, 64, 64], "dtype": "float32"}, {"name": "Func/StatefulPartitionedCall/model/UpCunet2x/while_4/body/_368/input/_779", "shape": [64], "dtype": "float32"}, {"name": "Func/StatefulPartitionedCall/model/UpCunet2x/while_4/body/_368/input/_780", "shape": [3, 3, 64, 3], "dtype": "float32"}, {"name": "StatefulPartitionedCall/model/UpCunet2x/while_4/body/_368/model/UpCunet2x/while_4/TensorArrayV2_1/element_shape", "shape": [], "dtype": "int32"}, {"name": "StatefulPartitionedCall/model/UpCunet2x/while_4/body/_368/model/UpCunet2x/while_4/range/delta", "shape": [], "dtype": "int32"}, {"name": "StatefulPartitionedCall/model/UpCunet2x/while_4/body/_368/model/UpCunet2x/while_4/range/start", "shape": [], "dtype": "int32"}, {"name": "StatefulPartitionedCall/model/UpCunet2x/while_4/body/_368/model/UpCunet2x/while_4/while/loop_counter", "shape": [], "dtype": "int32"}, {"name": "Func/StatefulPartitionedCall/model/UpCunet2x/while_4/body/_368/input/_781", "shape": [3], "dtype": "float32"}, {"name": "StatefulPartitionedCall/model/UpCunet2x/while_4/body/_368/model/UpCunet2x/while_4/while/body/_810/model/UpCunet2x/while_4/while/TensorArrayV2Read_1/TensorListGetItem/element_shape", "shape": [], "dtype": "int32"}, {"name": "StatefulPartitionedCall/model/UpCunet2x/while_4/body/_368/model/UpCunet2x/while_4/while/body/_810/model/UpCunet2x/while_4/while/UpCunet2x.unet2.conv4_up/strided_slice/stack", "shape": [1], "dtype": "int32"}, {"name": "StatefulPartitionedCall/model/UpCunet2x/while_4/body/_368/model/UpCunet2x/while_4/while/body/_810/model/UpCunet2x/while_4/while/UpCunet2x.unet2.conv4_up/strided_slice/stack_1", "shape": [1], "dtype": "int32"}, {"name": "StatefulPartitionedCall/model/UpCunet2x/while_4/body/_368/model/UpCunet2x/while_4/while/body/_810/model/UpCunet2x/while_4/while/UpCunet2x.unet2.conv4_up/strided_slice/stack_2", "shape": [1], "dtype": "int32"}, {"name": "StatefulPartitionedCall/model/UpCunet2x/while_4/body/_368/model/UpCunet2x/while_4/while/body/_810/model/UpCunet2x/while_4/while/UpCunet2x.unet2.conv4_up/strided_slice_1/stack", "shape": [1], "dtype": "int32"}, {"name": "StatefulPartitionedCall/model/UpCunet2x/while_4/body/_368/model/UpCunet2x/while_4/while/body/_810/model/UpCunet2x/while_4/while/UpCunet2x.unet2.conv4_up/strided_slice_1/stack_1", "shape": [1], "dtype": "int32"}, {"name": "StatefulPartitionedCall/model/UpCunet2x/while_4/body/_368/model/UpCunet2x/while_4/while/body/_810/model/UpCunet2x/while_4/while/UpCunet2x.unet2.conv4_up/strided_slice_1/stack_2", "shape": [1], "dtype": "int32"}, {"name": "StatefulPartitionedCall/model/UpCunet2x/while_4/body/_368/model/UpCunet2x/while_4/while/body/_810/model/UpCunet2x/while_4/while/UpCunet2x.unet2.conv4_up/mul/y", "shape": [], "dtype": "int32"}, {"name": "StatefulPartitionedCall/model/UpCunet2x/while_4/body/_368/model/UpCunet2x/while_4/while/body/_810/model/UpCunet2x/while_4/while/UpCunet2x.unet2.conv4_up/strided_slice_2/stack", "shape": [1], "dtype": "int32"}, {"name": "StatefulPartitionedCall/model/UpCunet2x/while_4/body/_368/model/UpCunet2x/while_4/while/body/_810/model/UpCunet2x/while_4/while/UpCunet2x.unet2.conv4_up/strided_slice_2/stack_1", "shape": [1], "dtype": "int32"}, {"name": "StatefulPartitionedCall/model/UpCunet2x/while_4/body/_368/model/UpCunet2x/while_4/while/body/_810/model/UpCunet2x/while_4/while/UpCunet2x.unet2.conv4_up/strided_slice_2/stack_2", "shape": [1], "dtype": "int32"}, {"name": "StatefulPartitionedCall/model/UpCunet2x/while_4/body/_368/model/UpCunet2x/while_4/while/body/_810/model/UpCunet2x/while_4/while/UpCunet2x.unet2.conv4_up/mul_1/y", "shape": [], "dtype": "int32"}, {"name": "StatefulPartitionedCall/model/UpCunet2x/while_4/body/_368/model/UpCunet2x/while_4/while/body/_810/model/UpCunet2x/while_4/while/UpCunet2x.unet2.conv4_up/stack/3", "shape": [], "dtype": "int32"}, {"name": "StatefulPartitionedCall/model/UpCunet2x/while_4/body/_368/model/UpCunet2x/while_4/while/body/_810/model/UpCunet2x/while_4/while/TensorArrayV2Read_2/TensorListGetItem/element_shape", "shape": [], "dtype": "int32"}, {"name": "StatefulPartitionedCall/model/UpCunet2x/while_4/body/_368/model/UpCunet2x/while_4/while/body/_810/model/UpCunet2x/while_4/while/TensorArrayV2Read/TensorListGetItem/element_shape", "shape": [], "dtype": "int32"}, {"name": "StatefulPartitionedCall/model/UpCunet2x/while_4/body/_368/model/UpCunet2x/while_4/while/body/_810/model/UpCunet2x/while_4/while/sub/y", "shape": [], "dtype": "float32"}, {"name": "StatefulPartitionedCall/model/UpCunet2x/while_4/body/_368/model/UpCunet2x/while_4/while/body/_810/model/UpCunet2x/while_4/while/mul_4/y", "shape": [], "dtype": "float32"}, {"name": "StatefulPartitionedCall/model/UpCunet2x/while_4/body/_368/model/UpCunet2x/while_4/while/body/_810/model/UpCunet2x/while_4/while/clip_by_value/Minimum/y", "shape": [], "dtype": "float32"}, {"name": "StatefulPartitionedCall/model/UpCunet2x/while_4/body/_368/model/UpCunet2x/while_4/while/body/_810/model/UpCunet2x/while_4/while/clip_by_value/y", "shape": [], "dtype": "float32"}, {"name": "StatefulPartitionedCall/model/UpCunet2x/while_4/body/_368/model/UpCunet2x/while_4/while/body/_810/model/UpCunet2x/while_4/while/add_6/y", "shape": [], "dtype": "int32"}, {"name": "StatefulPartitionedCall/model/UpCunet2x/while_4/body/_368/model/UpCunet2x/while_4/while/body/_810/model/UpCunet2x/while_4/while/UpCunet2x.unet2.conv4.seblock.conv1/BiasAdd/ReadVariableOp", "shape": [8], "dtype": "float32"}, {"name": "StatefulPartitionedCall/model/UpCunet2x/while_4/body/_368/model/UpCunet2x/while_4/while/body/_810/model/UpCunet2x/while_4/while/UpCunet2x.unet2.conv4.seblock.conv1/Conv2D/ReadVariableOp", "shape": [1, 1, 64, 8], "dtype": "float32"}, {"name": "StatefulPartitionedCall/model/UpCunet2x/while_4/body/_368/model/UpCunet2x/while_4/while/body/_810/model/UpCunet2x/while_4/while/UpCunet2x.unet2.conv4.seblock.conv2/BiasAdd/ReadVariableOp", "shape": [64], "dtype": "float32"}, {"name": "StatefulPartitionedCall/model/UpCunet2x/while_4/body/_368/model/UpCunet2x/while_4/while/body/_810/model/UpCunet2x/while_4/while/UpCunet2x.unet2.conv4.seblock.conv2/Conv2D/ReadVariableOp", "shape": [1, 1, 8, 64], "dtype": "float32"}, {"name": "StatefulPartitionedCall/model/UpCunet2x/while_4/body/_368/model/UpCunet2x/while_4/while/body/_810/model/UpCunet2x/while_4/while/UpCunet2x.unet2.conv4_up/BiasAdd/ReadVariableOp", "shape": [64], "dtype": "float32"}, {"name": "StatefulPartitionedCall/model/UpCunet2x/while_4/body/_368/model/UpCunet2x/while_4/while/body/_810/model/UpCunet2x/while_4/while/UpCunet2x.unet2.conv4_up/conv2d_transpose/ReadVariableOp", "shape": [2, 2, 64, 64], "dtype": "float32"}, {"name": "StatefulPartitionedCall/model/UpCunet2x/while_4/body/_368/model/UpCunet2x/while_4/while/body/_810/model/UpCunet2x/while_4/while/UpCunet2x.unet2.conv5/BiasAdd/ReadVariableOp", "shape": [64], "dtype": "float32"}, {"name": "StatefulPartitionedCall/model/UpCunet2x/while_4/body/_368/model/UpCunet2x/while_4/while/body/_810/model/UpCunet2x/while_4/while/UpCunet2x.unet2.conv5/Conv2D/ReadVariableOp", "shape": [3, 3, 64, 64], "dtype": "float32"}, {"name": "StatefulPartitionedCall/model/UpCunet2x/while_4/body/_368/model/UpCunet2x/while_4/while/body/_810/model/UpCunet2x/while_4/while/UpCunet2x.unet2.conv_bottom/Conv2D/ReadVariableOp", "shape": [3, 3, 64, 3], "dtype": "float32"}, {"name": "StatefulPartitionedCall/model/UpCunet2x/while_4/body/_368/model/UpCunet2x/while_4/while/body/_810/model/UpCunet2x/while_4/while/UpCunet2x.unet2.conv_bottom/BiasAdd/ReadVariableOp", "shape": [3], "dtype": "float32"}]}]}